models/CNNmodel.pt (torch, 119692 bytes, 8 tensors)

layer1.0.weight f4 [16, 1, 3, 3]
-0.026918849 -0.40110302 -0.014232183 0.06016219 -0.020117218 -0.074983075 -0.061119884 -0.28695565
0.07529761 -0.57146156 -1.6038411 -0.030964121 -2.4292283 -1.7586908 -0.39287618 -0.13171582
-0.01660177 0.16001165 -0.1899652 -0.3341632 0.50723606 -1.2313133 0.043388657 0.3019647
-1.6221113 0.21762288 -1.0363468 -0.42663938 -2.8865998 0.21451773 -0.030582018 -2.0542462
-0.3861824 0.50211 -0.28585458 -0.18334436 -0.53517133 0.4751068 -0.025003573 -0.5466598
0.34068894 0.19507825 0.17387861 -0.22414058 0.13375409 -0.13591938 -0.26673257 0.20339255
-0.10333488 -0.11189241 -0.25024375 -0.19206326 0.04338854 -0.12818712 0.43213564 -0.20158139
-0.5023773 -0.40506488 -0.49502388 -3.0487738 0.06600819 -0.59463483 -1.7853862 -0.08207157
-0.3259394 -0.12653315 -0.43179563 -0.081333406 -0.122992404 -0.23860472 -0.055685002 -0.09728531
-1.5183765 -0.5249064 0.060917124 -0.32153854 -0.4030605 0.4952829 -0.12040016 0.40562552
-0.20466274 -0.22632377 0.33034828 0.31220734 0.42184886 -0.4689647 0.11897126 -0.19783166
-0.3141573 -0.7375424 -0.0008200789 0.37965143 -0.409743 0.42828405 0.05451717 -0.32557535
0.31947201 0.14515132 -0.7052428 -0.3236305 -0.25744343 -0.034504924 -0.020381253 0.06939634
-0.07025127 0.014172533 0.101429045 -0.2342047 -1.727542 -0.8498824 -0.4514924 -0.06804252
-0.61188877 0.18710425 -0.37768424 -0.1705652 0.07834358 -0.13785894 -0.37185058 -1.0801042
0.3261256 -0.15364255 -0.7272554 -0.016693301 0.010442485 0.204078 -0.042592563 0.19034772
-0.09858347 -4.668291e-05 -0.18473428 -0.07594085 -0.010587427 -0.02226847 -0.3589583 -0.5469033
-0.83978415 -0.82869714 -0.1263437 0.16292827 -0.1244877 0.03759623 -0.5073567 -0.8116915
00000000: eb84 dcbc 605d cdbe 1a2e 69bc a16c 763d
00000010: ddcc a4bc ba90 99bd d858 7abd daeb 92be
00000020: a235 9a3d 4e4b 12bf aa4a cdbf 78a8 fdbc
00000030: 7a78 1bc0 c81c e1bf 1127 c9be 83e0 06be
00000040: 6f00 88bc 18da 233e 3d86 42be 7017 abbe
00000050: 39da 013f ad9b 9dbf 4eb8 313d 1e9b 9a3e
00000060: 58a1 cfbf 88d8 5e3e 03a7 84bf 7a70 dabe
00000070: 0dbe 38c0 89aa 5b3e 2487 fabc c578 03c0
00000080: b3b9 c5be 488a 003f 885b 92be a0be 3bbe
00000090: fd00 09bf 3341 f33e 4bd4 ccbc e6f1 0bbf
000000a0: c86e ae3e 98c2 473e 3c0d 323e 1c85 65be
000000b0: d5f6 083e 732e 0bbe 2c91 88be 2346 503e
000000c0: 3da1 d3bd d927 e5bd f31f 80be 3bac 44be
000000d0: 2fb8 313d 7c43 03be e240 dd3e 5a6b 4ebe
000000e0: cc9b 00bf aa64 cfbe c573 fdbe 1c1f 43c0
000000f0: 4d2f 873d fd39 18bf 8987 e4bf 2415 a8bd
00000100: 87e1 a6be e891 01be 5114 ddbe 2192 a6bd
00000110: 71e3 fbbd cc54 74be f515 64bd 853d c7bd
00000120: 295a c2bf 4460 06bf 3c84 793d b3a0 a4be
00000130: f25d cebe b895 fd3e 5c94 f6bd 26ae cf3e
00000140: 1c93 51be 6bc1 67be 6923 a93e a4d9 9f3e
00000150: 93fc d73e 241c f0be 34a7 f33d 6294 4abe
00000160: 3ad9 a0be 94cf 3cbf 90fa 56ba ac61 c23e
00000170: d6c9 d1be 0c48 db3e 654d 5f3d d0b1 a6be
00000180: d691 a33e 8ca2 143e cb8a 34bf e6b2 a5be
00000190: a0cf 83be 0955 0dbd 96f6 a6bc ab1f 8e3d
000001a0: e6df 8fbd e933 683c 08ba cf3d 5bd3 6fbe
000001b0: 1920 ddbf e591 59bf 032a e7be e059 8bbd
000001c0: bea4 1cbf 4298 3f3e d45f c1be a5a8 2ebe
000001d0: 9972 a03d e52a 0dbe 3363 bebe db40 8abf
000001e0: eff9 a63e 7954 1dbe 692d 3abf 64c0 88bc
000001f0: f516 2b3c d3f9 503e 8a75 2ebd 83ea 423e
00000200: 21e6 c9bd 65cd 43b8 fc2a 3dbe e086 9bbd
00000210: e376 2dbc 5e6c b6bc 62c9 b7be db01 0cbf
00000220: 18fc 56bf 7f25 54bf 3e60 01be abd6 263e
00000230: 68f3 febd 81fe 193d 21e2 01bf 04cb 4fbf

layer1.0.bias f4 [16]
-0.31265548 0.19862731 -0.033922955 0.042927697 -0.047421057 -0.23031926 0.1619781 -0.64234614
-0.029310621 -0.115138896 -0.044470254 -0.36062184 -0.11810373 -0.0827641 -0.27326134 -0.2120551
00000000: 6114 a0be f564 4b3e ccf2 0abd f4d4 2f3d
00000010: 953c 42bd d0d8 6bbe 96dd 253e cc70 24bf
00000020: d41c f0bc f1cd ebbd 7126 36bd 6da3 b8be
00000030: 5ee0 f1bd 3980 a9bd e9e8 8bbe f924 59be

layer2.0.weight f4 [32, 16, 3, 3]
-0.0782932 -0.013485173 -0.047051102 -0.16661708 -0.031101186 -0.1085813 -0.019733083 -0.074311286
-0.07472023 -0.13337427 -0.07112876 -0.005165718 -0.14505382 -0.045577146 -0.05393771 -0.13137265
-0.106608905 -0.11064284 -0.095591255 -0.09842266 -0.08229004 -0.12806785 -0.002933442 -0.13963866
-0.1205026 -0.056109432 -0.02415099 -0.07871006 -0.08561065 -0.13795695 -0.10505779 -0.091912165
-0.039458383 -0.117476925 -0.032145005 -0.08783621 -0.0023755026 -0.03756279 -0.028976753 -0.0511136
-0.06698195 -0.07755895 -0.13219407 -0.04816664 0.017732112 -0.06970089 -0.07867561 -0.03846197
-0.09130798 -0.08804676 -0.13604462 -0.051440194 -0.07886775 -0.14637126 -0.041785613 -0.12845089
-0.054613095 -0.048900206 -0.14209001 -0.13173537 -0.10092309 -0.030328179 -0.010617068 -0.059493426
-0.088969424 -0.044247095 -0.04462716 -0.09509924 -0.120749496 -0.079003245 -0.16003232 -0.033848394
-0.028459363 -0.14406049 -0.045469172 -0.06486091 -0.15214473 -0.08395234 -0.0045650643 -0.1657618
-0.14255354 -0.107140355 0.09536252 -0.07912015 0.09382565 -0.0438113 0.007284179 0.0014304366
-0.05833528 0.08391418 -0.10332282 -0.043341745 3.3777833e-05 -0.15187034 -0.11340871 -0.11155245
-0.0018821884 -0.102677435 -0.02074516 0.019255131 0.07796359 -0.042759687 0.024978667 -0.11616413
-0.059993844 0.081195466 0.05505411 -0.043382972 -0.12477037 -0.04951927 -0.016574217 -0.03599977
-0.00092421926 -0.084132075 -0.11867472 -0.12405518 -0.0003026986 -0.12933001 -0.048071936 -0.14976653
-0.03581852 -0.11955888 -0.02242722 -0.13236108 -0.009731916 -0.03082532 -0.16696043 -0.02357328
-0.08119133 -0.0020701273 -0.08040898 -0.023877608 -0.026526874 -0.060026452 -0.023149578 -0.08778699
-0.004413209 -0.022012133 -0.11874494 -0.16260275 -0.09444601 -0.097256124 -0.054755088 -0.043918442
-0.27128223 -0.11960269 -0.26774305 -0.27952635 -0.15442264 -0.20451267 -0.21035454 -0.19554064
0.07746085 -0.012794295 -0.17731026 -0.118790284 0.057012487 -0.08612702 -0.21548483 -0.13567188
-0.30664214 -0.2341876 -0.05995014 -0.018062336 -0.10516374 -0.0038095915 -0.13899916 0.03578488
-0.08728673 -0.15493408 -0.06407097 -0.14338359 -0.24144037 -0.17579132 -0.17822795 -0.13720757
-0.1772516 -0.017470734 -0.18214205 -0.22206876 0.025513044 -0.21298146 -0.15001464 -0.16068868
-0.17822295 -0.23002556 -0.17414403 -0.26291794 0.04786828 -0.045136884 -0.13393871 -0.13449839
-0.014431938 -0.11863471 -0.011396428 -0.0650921 -0.114064865 -0.14303674 -0.09077957 -0.11727808
0.07509254 -0.14258265 -0.1748115 -0.028842833 0.13111533 -0.2066335 -0.014772271 -0.05658373
-0.09138854 -0.07160848 0.025169488 -0.13899347 -0.04248653 0.0033733135 -0.14945932 -0.10903687
0.07948389 0.08392308 -0.13026732 -0.036356155 -0.16414301 -0.11791529 -0.027874723 -0.08962325
0.097313024 0.034346938 -0.16054945 -0.13134147 -0.20402247 -0.057065714 -0.17633946 -0.3105969
0.012390938 0.0076497807 -0.17137961 -0.08837346 -0.1644597 -0.26729992 -0.19560178 -0.122453935
-0.019260168 -0.07709327 -0.19184609 -0.040359706 -0.06803951 0.036600374 0.044549666 -0.06823082
0.0040406883 0.0020193558 -0.019052615 -0.043400478 -0.028800003 -0.16158988 -0.11490416 -0.095215686
00000000: 2f58 a0bd eaf0 5cbc a8b8 40bd ab9d 2abe
00000010: eac7 febc df5f debd 46a7 a1bc 8430 98bd
00000020: ec06 99bd 4493 08be f5ab 91bd 2f45 a9bb
00000030: fd88 14be 1aaf 3abd caed 5cbd 8d86 06be
00000040: c555 dabd b798 e2bd 59c5 c3bd d291 c9bd
00000050: ae87 a8bd 3824 03be fd3e 40bb 70fd 0ebe
00000060: 11ca f6bd 01d3 65bd 4cd8 c5bc bd32 a1bd
00000070: a354 afbd 9644 0dbe 8a28 d7bd 723c bcbd
00000080: 1d9f 21bd be97 f0bd 7baa 03bd 79e3 b3bd
00000090: 52ae 1bbb 71db 19bd a860 edbc 7f5c 51bd
000000a0: d52d 89bd 3ad7 9ebd e25d 07be 624a 45bd
000000b0: ef42 913c 57bf 8ebd ae20 a1bd 4c8a 1dbd
000000c0: aeff babd dc51 b4bd 484f 0bbe f4b2 52bd
000000d0: 6a85 a1bd 59e2 15be 6427 2bbd a188 03be
000000e0: fbb1 5fbd 954b 48bd 0b80 11be a3e5 06be
000000f0: c4b0 cebd cd72 f8bc 36f3 2dbc 61af 73bd
00000100: 9a35 b6bd 713c 35bd f8ca 36bd 64c3 c2bd
00000110: 834b f7bd 74cc a1bd 83df 23be 9da4 0abd
00000120: 9c23 e9bc 9884 13be e23d 3abd ccd5 84bd
00000130: d4cb 1bbe 34ef abbd 8996 95bb 76bd 29be
00000140: 8ef9 11be 676c dbbd 6d4d c33d bf09 a2bd
00000150: aa27 c03d 7a73 33bd 1fb0 ee3b 7d7d bb3a
00000160: f9f0 6ebd 33db ab3d ea9a d3bd 1d87 31bd
00000170: acac 0d38 e683 1bbe d342 e8bd 9c75 e4bd
00000180: c3b3 f6ba 8c48 d2bd c1f1 a9bc f0bc 9d3c
00000190: 60ab 9f3d c824 2fbd 10a0 cc3c 76e7 edbd
000001a0: 1bbc 75bd cf49 a63d 6b80 613d 58b2 31bd
000001b0: 9c87 ffbd b8d4 4abd a7c6 87bc 7f74 13bd
000001c0: 4e47 72ba 704d acbd bb0b f3bd a410 febd
000001d0: 85b3 9eb9 166f 04be 14e7 44bd 665c 19be
000001e0: 71b6 12bd 49db f4bd 4ab9 b7bc aa89 07be
000001f0: 9d72 1fbc 6285 fcbc adf7 2abe c01c c1bc
00000200: a447 a6bd f9aa 07bb 77ad a4bd f99a c3bc
00000210: e34e d9bc 4cde 75bd 2fa4 bdbc aac9 b3bd
00000220: ae9c 90bb ca52 b4bc 8c30 f3bd 5681 26be
00000230: e96c c1bd 382e c7bd df46 60bd d3e3 33bd
00000240: 81e5 8abe 41f2 f4bd 9e15 89be 141e 8fbe
00000250: f820 1ebe c56b 51be 2e67 57be ce3b 48be
00000260: cba3 9e3d 2a9f 51bc d290 35be 5248 f3bd
00000270: ed85 693d 5d63 b0bd 0ea8 5cbe 92ed 0abe
00000280: 3300 9dbe e0ce 6fbe 478e 75bd 77f7 93bc
00000290: 1660 d7bd 57aa 79bb cc55 0ebe 2b93 123d
000002a0: 63c3 b2bd 0aa7 1ebe a437 83bd 26d3 12be
000002b0: 253c 77be a402 34be 6381 36be 2480 0cbe
000002c0: 7281 35be c91e 8fbc 7283 3abe fe65 63be
000002d0: bb00 d13c d017 5abe 709d 19be 938b 24be
000002e0: 1480 36be d28b 6bbe d052 32be 2e9d 86be
000002f0: 8811 443d 74e1 38bd 3b27 09be f2b9 09be
00000300: ef73 6cbc c1f6 f2bd 15b8 3abc 024f 85bd
00000310: d79a e9bd 3978 12be a4ea b9bd 7d2f f0bd
00000320: 1eca 993d 3001 12be c901 33be ce47 ecbc
00000330: 1943 063e bb97 53be 6507 72bc 57c4 67bd
00000340: ea29 bbbd 77a7 92bd 3e30 ce3c 4e54 0ebe
00000350: 5b06 2ebd cf12 5d3b dd0b 19be b94e dfbd
00000360: 73c8 a23d dddf ab3d cc64 05be 31ea 14bd
00000370: 1b15 28be 927d f1bd 8859 e4bc 658c b7bd
00000380: 0d4c c73d 60af 0c3d 1367 24be 617e 06be
00000390: 44eb 50be bdbd 69bd 5592 34be 8f06 9fbe
000003a0: 5c03 4b3c 03ab fa3b 237e 2fbe 25fd b4bd
000003b0: 2068 28be 89db 88be d54b 48be 21c9 fabd
000003c0: 80c7 9dbc 14e3 9dbd 4d73 44be 3850 25bd
000003d0: 4c58 8bbd 46ea 153d b679 363d 9abc 8bbd
000003e0: c067 843b 2b57 043b 3b14 9cbc b3c4 31bd
000003f0: fced ebbc d177 25be df52 ebbd 7100 c3bd

layer2.0.bias f4 [32]
-0.080407165 -0.12970445 -0.31732213 -0.10062285 -0.15281959 -0.10427949 -0.054675773 -0.23855048
-0.10805334 -0.15659207 0.15617202 -0.16844359 -0.048699446 -0.16226861 -0.025483513 0.06354061
0.0332777 -0.16287497 -0.10331659 -0.2885017 -0.27525425 -0.22189061 -0.3538821 -0.114353
0.2818132 -0.42114362 0.092913456 0.09690749 -0.13154423 -0.1139665 0.20053944 0.004379482
00000000: 83ac a4bd 3ed1 04be 0c78 a2be 5a13 cebd
00000010: bd7c 1cbe 7c90 d5bd b4f3 5fbd 9446 74be
00000020: 124b ddbd ac59 20be 8feb 1f3e 7a7c 2cbe
00000030: 1279 47bd be29 26be cdc2 d0bc 9421 823d
00000040: 334e 083d b2c8 26be a697 d3bd 7fb6 93be
00000050: 20ee 8cbe 4b37 63be 0930 b5be e831 eabd
00000060: d249 903e 23a0 d7be 6949 be3d 6f77 c63d
00000070: 88b3 06be 4567 e9bd 365a 4d3e c281 8f3b

layer3.0.weight f4 [64, 32, 3, 3]
0.020127961 -0.013095461 -0.10979693 -0.05122291 -0.07607089 -0.01590469 0.055818457 0.0051471354
-0.054094568 0.13441557 0.08623468 0.035052862 0.2401513 0.06874663 0.09663101 0.1883862
0.053473838 -0.02502383 -0.14717485 -0.66629064 -0.3371969 -0.05636941 -0.18657583 0.0040781437
-0.0799263 0.7686224 0.05197876 0.106813796 0.034916505 -0.051396422 0.014439836 0.076845884
0.0076863584 0.080814615 0.051541366 0.0017767148 0.0065054176 0.011841608 0.0042774393 0.025115592
0.019784242 0.012056153 0.011188583 0.014094667 -0.028212152 0.29548913 0.51992846 0.48772696
0.25472295 0.4009782 0.29022917 0.45448518 0.42256895 0.45589298 0.039398488 0.14766665
0.048246585 -0.12001541 0.15585573 0.17208594 -0.08630602 0.27691108 0.15703768 -0.03126976
0.010812276 0.06860667 0.04136937 0.073869556 0.0017821755 0.08722456 0.03848131 0.047610175
0.04855153 -0.019155638 0.025398472 0.04759958 -0.05799722 -0.019566132 0.05221645 0.014346086
0.07592289 -0.39153877 -1.0792223 -0.21150176 -0.6772718 -0.36682394 -0.39399806 -0.83071756
0.39304334 -0.32760027 -0.56644756 -0.7527848 -0.6302018 -0.770478 -0.8847543 -0.46249422
-0.088774234 -0.045602765 -0.79493594 0.13302372 -0.115523994 -0.06385651 0.15319675 0.10140969
0.083135605 0.3033903 0.23362458 -0.11848336 0.4883553 0.2033872 -0.0040238453 -0.008714027
0.03444808 0.0316677 -0.1596472 -0.5120646 0.25117388 0.3678547 -0.34669116 -0.13779674
0.56671053 0.12859757 -0.31241623 0.25962108 0.44988573 0.2553286 -0.17262356 -0.05220198
-0.3652114 0.31039253 -0.11286638 0.10158007 0.11390297 -0.53377634 0.2689328 0.64474046
0.38126978 -0.14410554 0.4958524 0.21321873 -0.036086995 0.17395656 -0.36929312 -0.17297499
0.19521359 -0.3833396 -0.6764322 -0.23988624 -0.21996035 -0.24291731 -0.38035157 0.016186059
0.4532723 -0.07410078 -0.05909488 -0.07226519 -0.07289051 -0.07226051 -0.13770688 -0.08925898
0.03162266 -0.005005477 0.12629645 0.023715047 0.3377477 0.069279216 0.13213487 0.2512736
0.39570332 -0.021892807 0.13546437 -0.0032347392 -0.19329388 0.040207464 -0.2675125 0.0113766
0.038907226 0.2064208 0.34897673 -0.33603346 -0.18978974 -0.679989 -0.6394196 0.1510987
-0.3134398 -0.5261822 -0.20362926 -0.075737946 -0.46389118 0.11305331 -0.10629968 -0.0705311
-0.048798546 0.16179326 -0.1771455 0.02867565 0.08570945 -0.20763174 0.020197077 0.029187081
0.0096993875 -0.02322783 0.25150934 0.21765336 0.03835758 0.12147076 0.28648013 -0.123112
-0.0018141947 -0.05542374 0.17161201 0.05038592 -0.0397058 0.044588543 -0.016535688 -0.028393421
-0.15451597 -0.52161956 -0.2865558 0.42209184 -0.37366453 0.11981523 -0.08957706 -0.8481839
-0.11523523 -0.012820679 -0.0129215745 -0.027839856 0.053536605 0.24721184 0.02253524 0.17743331
-0.13422005 -0.014801357 0.8785698 0.0873666 0.47351858 0.82991123 -0.12685648 -0.039274998
0.76066256 -0.12404595 -0.17117544 -1.1913512 -0.62863004 -0.89695036 -0.5308546 -0.8481063
-0.26269463 -0.41351148 -0.48556644 -0.0923716 0.064146265 0.011815307 -0.051497348 0.089521974
00000000: 65e3 a43c 588e 56bc 36dd e0bd 1dcf 51bd
00000010: 0ecb 9bbd 8d4a 82bc e5a1 643d 4da9 a83b
00000020: 4492 5dbd 3ca4 093e cf9b b03d 9793 0f3d
00000030: 39ea 753e 08cb 8c3d 7be6 c53d 50e8 403e
00000040: 6207 5b3d c6fe ccbc 01b5 16be 0692 2abf
00000050: 12a5 acbe 9ce3 66bd bc0d 3fbe f3a1 853b
00000060: 66b0 a3bd 70c4 443f aee7 543d 31c1 da3d
00000070: 9c04 0f3d 0e85 52bd 1095 6c3c 6061 9d3d
00000080: d9dd fb3b 2282 a53d 0a1d 533d a8e0 e83a
00000090: 662b d53b 4e03 423c c329 8c3b 37bf cd3c
000000a0: 9012 a23c 2c87 453c 5250 373c 51ed 663c
000000b0: 2c1d e7bc 5a4a 973e 081a 053f 59b7 f93e
000000c0: 0c6b 823e 044d cd3e eb98 943e 48b2 e83e
000000d0: f55a d83e ce6a e93e 4f60 213d ed35 173e
000000e0: 369e 453d a4ca f5bd a598 1f3e 4c37 303e
000000f0: 36c1 b0bd 4ac7 8d3e 7cce 203e b814 00bd
00000100: f925 313c a781 8c3d ee72 293d ec48 973d
00000110: e397 e93a caa2 b23d 949e 1d3d e302 433d
00000120: f8dd 463d 49ec 9cbc 7510 d03c c7f7 423d
00000130: 7e8e 6dbd 2749 a0bc ebe0 553d d90b 6b3c
00000140: 767d 9b3d c577 c8be f523 8abf eb93 58be
00000150: af61 2dbf 59d0 bbbe 1dba c9be e8a9 54bf
00000160: fa3c c93e 39bb a7be b502 11bf 81b6 40bf
00000170: e854 21bf 0c3e 45bf 427f 62bf 0bcc ecbe
00000180: 44cf b5bd f7c9 3abd ec80 4bbf 5f37 083e
00000190: d897 ecbd 34c7 82bd 9cdf 1c3e e2af cf3d
000001a0: 0043 aa3d f955 9b3e 483b 6f3e 67a7 f2bd
000001b0: b509 fa3e bc44 503e 76da 83bb 47c5 0ebc
000001c0: 6e19 0d3d fdb5 013d 8e7a 23be aa16 03bf
000001d0: dd99 803e 7457 bc3e 8181 b1be 971a 0dbe
000001e0: f113 113f 15af 033e 05f5 9fbe 0eed 843e
000001f0: 6c57 e63e 6eba 823e 3bc4 30be bed1 55bd
00000200: fdfc babe c5eb 9e3e 7d26 e7bd 3609 d03d
00000210: f645 e93d 91a5 08bf 8fb1 893e b60d 253f
00000220: cb35 c33e 6790 13be 5ee0 fd3e 0356 5a3e
00000230: f5cf 13bd ab21 323e fd13 bdbe 5b20 31be
00000240: 12e6 473e 1745 c4be a92a 2dbf bda4 75be
00000250: 493d 61be 51bf 78be 71bd c2be a098 843c
00000260: 4f13 e83e 26c2 97bd 790d 72bd c6ff 93bd
00000270: 9f47 95bd 51fd 93bd 0803 0dbe 69cd b6bd
00000280: c386 013d fc04 a4bb db53 013e 0f46 c23c
00000290: 44ed ac3e 43e2 8d3d 5d4e 073e efa6 803e
000002a0: a099 ca3e 8b58 b3bc 2cb7 0a3e ebfd 53bb
000002b0: d5ee 45be 95b0 243d 66f7 88be eb64 3a3c
000002c0: 2f5d 1f3d f95f 533e 14ad b23e 940c acbe
000002d0: 3e58 42be c213 2ebf 01b1 23bf 9eb9 1a3e
000002e0: 2e7b a0be e0b3 06bf 3084 50be 7f1c 9bbd
000002f0: 2583 edbe 7e88 e73d a6b3 d9bd 9c72 90bd
00000300: fce0 47bd 22ad 253e a165 35be 32e9 ea3c
00000310: 7088 af3d 6a9d 54be 5774 a53c bf19 ef3c
00000320: 2eea 1e3c 4a48 bebc d5c5 803e 86e0 5e3e
00000330: d61c 1d3d a9c5 f83d 86ad 923e 2522 fcbd
00000340: 46ca edba 0104 63bd 0fbb 2f3e 7761 4e3d
00000350: 8da2 22bd 7aa2 363d da75 87bc 5299 e8bc
00000360: 6f39 1ebe dc88 05bf 71b7 92be 6c1c d83e
00000370: f550 bfbe b061 f53d 2d74 b7bd 9422 59bf
00000380: 7300 ecbd d30d 52bc 03b5 53bc 6910 e4bc
00000390: 3349 5b3d 1a25 7d3e d39b b83c 14b1 353e
000003a0: fb70 09be 6481 72bc f3e9 603f 43ed b23d
000003b0: 0771 f23e 1075 543f aae6 01be d2de 20bd
000003c0: c8ba 423f ce0b febd 9d48 2fbe 327e 98bf
000003d0: e6ed 20bf 8a9e 65bf 16e6 07bf 7f1d 59bf
000003e0: e97f 86be c7b7 d3be 2a9c f8be 522d bdbd
000003f0: 1e5f 833d fd94 413c e2ee 52bd 4c57 b73d

layer3.0.bias f4 [64]
0.017503792 -0.16467924 -0.28994215 -0.21853586 -0.2709337 -0.35251275 0.1521552 -0.18055029
-0.15762565 -0.33569446 -0.37951225 -0.24469845 -0.058430202 -0.21085499 -0.20093095 -0.1508644
-0.13614488 -0.14416109 -0.14844549 0.12179361 -0.19158204 -0.11540231 -0.12556395 -0.19392274
0.11225071 -0.03373585 -0.3711065 0.14739695 0.10704584 0.102708265 0.13589394 -0.09332505
-0.07866271 -0.324871 -0.110279 -0.16357276 -0.107475445 -0.3091344 -0.28097522 -0.1490265
-0.22382045 -0.026994 0.013545425 -0.20367816 -0.32167286 0.13565938 0.22225247 -0.23617825
0.11409396 -0.33041918 -0.23846331 -0.08085365 -0.16440123 -0.11250992 -0.35882577 -0.09875226
-0.3072115 0.2781547 -0.46598077 -0.13345952 0.0050921342 -0.25125504 0.27297175 -0.0917857
00000000: 1d64 8f3c ada1 28be 4c73 94be ddc7 5fbe
00000010: d2b7 8abe 8d7c b4be 93ce 1b3e 2de2 38be
00000020: 9e68 21be 25e0 abbe 6e4f c2be 3b92 7abe
00000030: 8254 6fbd 5fea 57be d8c0 4dbe 337c 1abe
00000040: 9069 0bbe f79e 13be 1802 18be ee6e f93d
00000050: 152e 44be 0c58 ecbd d693 00be af93 46be
00000060: b3e3 e53d 9a2e 0abd ac01 bebe 3aef 163e
00000070: d93a db3d b658 d23d c827 0b3e 3421 bfbd
00000080: ea19 a1bd 7e55 a6be f5d9 e1bd 9e7f 27be
00000090: 161c dcbd dd46 9ebe fcdb 8fbe 679a 18be
000000a0: 3031 65be 8522 ddbc a1ed 5d3c 0291 50be
000000b0: 4eb2 a4be 4bea 0a3e 2796 633e b6d8 71be
000000c0: 18aa e93d b42c a9be ba2f 74be 9996 a5bd
000000d0: cc58 28be 9a6b e6bd 03b8 b7be a03e cabd
000000e0: d34a 9dbe 4b6a 8e3e 0895 eebe 9da9 08be
000000f0: ebdb a63b 80a4 80be f4c2 8b3e 24fa bbbd

classifier.1.weight f4 [10, 576]
-0.29234904 0.17927983 -0.4732322 -0.38522038 -0.62135804 -0.55845284 0.15378155 -0.68672717
0.4764655 -0.09668014 -0.008326044 -0.026412841 -0.010867949 0.024839794 0.004833768 0.06384946
-0.060555015 -0.0067730797 0.09537128 0.0046484815 -0.23842025 -0.7531988 -0.49433982 0.19365755
0.4749136 -0.059540864 -0.9381118 0.086250655 -0.070094325 0.01989378 0.024642142 -0.03164299
0.06965646 0.03430276 -0.037924405 0.06370382 -0.18941231 -0.1264606 -0.08609723 -0.054379843
0.078788266 -0.04123138 -0.0073190397 -0.08637801 -0.0293335 0.10994756 -0.2207115 0.28254852
0.0029048938 -0.31309795 -0.46500534 -0.30137068 0.04573767 -0.23468837 -0.10336375 -0.46295023
-0.2001634 -0.23203373 0.09378084 -0.36395052 -0.42830083 0.393441 -0.43413964 0.033681657
0.18067585 0.32942045 0.093699485 0.14000274 0.14943182 -0.142341 -0.1838316 -0.01167077
0.012001295 0.008055756 -0.061770417 -0.023227943 0.0029827869 -0.040823195 -0.059107237 0.071619965
-0.014813631 0.2546574 0.50833774 -0.16691466 -0.30411196 -0.060223084 -0.03320995 -1.0112413
-0.12361852 -0.18432653 -0.633347 0.06908642 0.021120943 0.13747363 0.1457097 0.024544077
-0.31443542 -0.042532463 0.23532186 -0.088060506 -0.3929565 0.051894385 0.076202326 -0.13437772
-0.17024997 0.10874002 -0.21609348 -0.16309077 -0.057713926 0.089284725 0.024140233 0.06197224
0.07749953 0.06437308 -0.086893104 0.06504168 0.04603604 -0.40198112 -0.16354443 0.22567523
0.01387561 0.18762867 0.50702834 0.11261542 0.11402694 -0.7816495 -0.13427505 -0.0815101
-0.08165889 0.20674312 -0.08407771 -0.037604287 -0.008513607 -0.0026757822 -0.31935048 0.38382894
-0.03603841 -0.10124919 0.20904179 -0.46868932 -0.31015992 -0.07062401 0.19103421 0.32798877
0.022991681 0.0006134379 -0.051066056 0.020380894 -0.11471193 -0.05448165 -0.036549117 0.07908431
0.0038558345 0.0132636335 0.18517902 -0.2619173 -0.003936043 -0.055974826 -0.62224525 -0.5658265
-0.3313462 0.2859391 0.05328804 0.014892037 0.019210363 0.05507719 0.08660045 0.040406484
0.09938472 0.0025892353 0.047436077 -0.15496208 -0.009806829 -0.6477657 -0.20908095 -0.12606844
-0.5853764 -0.250481 0.17704174 -0.4280997 0.28256318 0.18600465 -0.00037707016 -0.27971417
-0.08864947 -0.40826768 -0.24971193 0.09513412 -0.38979906 -0.06529599 -0.6589309 0.20357332
0.21761653 -0.088365324 -0.5998832 0.19720347 -0.1280348 0.092238024 0.097240426 0.058222152
0.039120525 0.07030932 0.025918035 0.052354373 -0.037668604 0.0833762 0.06637704 0.09056508
-0.072653376 -0.009884272 -0.64933413 -0.4088631 -0.22354256 -1.3719672 0.4464065 -0.03167854
-0.27033633 -0.17759743 -0.4929675 -0.25279877 -1.4329288 0.11229552 0.022134865 -0.61641186
0.58676064 0.024865823 0.030667998 0.06830989 0.08520211 0.088721015 0.061222352 0.043140247
0.019031819 0.07818959 0.2251399 0.062456578 0.074693695 0.01789051 0.031893823 0.081026085
0.06770264 0.019989742 0.08348847 0.010200937 -0.30745205 -0.30562276 -0.02917932 -0.18574333
0.2449966 -0.026024893 0.15731996 0.08813574 -0.6169327 0.048429262 0.20400308 0.29349986
00000000: c6ae 95be 2295 373e 7e4b f2be 9b3b c5be
00000010: 5211 1fbf c4f6 0ebf e978 1d3e 5acd 2fbf
00000020: 49f3 f33e 3d00 c6bd f669 08bc be5f d8bc
00000030: 7b0f 32bc d37c cb3c 9664 9e3b 81c3 823d
00000040: 8908 78bd b6f0 ddbb 0552 c33d 4a52 983b
00000050: 7024 74be a3d1 40bf 1c1a fdbe 2a4e 463e
00000060: e027 f33e 1fe1 73bd 1828 70bf 2fa4 b03d
00000070: 9d8d 8fbd 48f8 a23c 51de c93c 149c 01bd
00000080: 0ca8 8e3d 0d81 0c3d 9f56 1bbd 2677 823d
00000090: 4df5 41be e37e 01be bf53 b0bd 66bd 5ebd
000000a0: be5b a13d 3ce2 28bd 8ed4 efbb f4e6 b0bd
000000b0: cf4c f0bc 302c e13d 3202 62be 33aa 903e
000000c0: 0860 3e3b 604e a0be 2e15 eebe 424d 9abe
000000d0: 6c57 3b3d 2652 70be 60b0 d3bd d007 edbe
000000e0: a2f7 4cbe 409a 6dbe 2b10 c03d b957 babe
000000f0: 3f4a dbbe 1971 c93e 8d47 debe c7f5 093d
00000100: 1703 393e cca9 a83e 84e5 bf3d e15c 0f3e
00000110: a804 193e d7c1 11be 5a3e 3cbe c236 3fbc
00000120: 14a1 443c 4afc 033c fa02 7dbd 8748 bebc
00000130: dc7a 433b 3936 27bd 6e1a 72bd 7dad 923d
00000140: dfb4 72bc 7462 823e 6c22 023f adeb 2abe
00000150: 90b4 9bbe 7bac 76bd 2807 08bd 5b70 81bf
00000160: b52b fdbd 18c0 3cbe 0723 22bf 2e7d 8d3d
00000170: d405 ad3c e3c5 0c3e ec34 153e a910 c93c
00000180: aefd a0be 8536 2ebd 37f8 703e 1159 b4bd
00000190: 9831 c9be 358f 543d f70f 9c3d 509a 09be
000001a0: 0256 2ebe 16b3 de3d 9c47 5dbe 4401 27be
000001b0: 7065 6cbd e9da b63d bdc1 c53c 9bd6 7d3d
000001c0: 13b8 9e3d 09d6 833d 03f5 b1bd 9334 853d
000001d0: 4990 3c3d 78d0 cdbe 3178 27be 6817 673e
000001e0: 8756 633c bb21 403e 9ccc 013f eaa2 e63d
000001f0: f586 e93d 2e1a 48bf 667f 09be c4ee a6bd
00000200: c73c a7bd 78b4 533e ef30 acbd f406 1abd
00000210: a87c 0bbc 2d5c 2fbb e881 a3be 3a85 c43e
00000220: 039d 13bd bc5b cfbd 0d0f 563e 0cf8 efbe
00000230: 48cd 9ebe 52a3 90bd 799e 433e 25ee a73e
00000240: 0d59 bc3c 1fcf 203a a42a 51bd d5f5 a63c
00000250: 17ee eabd 2728 5fbd 87b4 15bd f4f6 a13d
00000260: 2bb2 7c3b b64f 593c 929f 3d3e 061a 86be
00000270: ecf9 80bb dc45 65bd 774b 1fbf 01da 10bf
00000280: 36a6 a9be 9c66 923e 8f44 5a3d bbfd 733c
00000290: 0d5f 9d3c 9f98 613d 945b b13d 4581 253d
000002a0: 378a cb3d 29b0 293b 554c 423d 61ae 1ebe
000002b0: d2ac 20bc f9d3 25bf 5119 56be 1618 01be
000002c0: 3adb 15bf 0c3f 80be 6e4a 353e e22f dbbe
000002d0: 1fac 903e 0178 3e3e 80b1 c5b9 b236 8fbe
000002e0: da8d b5bd 7608 d1be 7cb4 7fbe add5 c23d
000002f0: be93 c7be e7b9 85bd b2af 28bf 8675 503e
00000300: ded6 5e3e e1f8 b4bd f291 19bf b5ef 493e
00000310: 8e1b 03be 4ae7 bc3d fd25 c73d 5a7a 6e3d
00000320: d83c 203d 55fe 8f3d 0f52 d43c 8a71 563d
00000330: 654a 1abd 24c1 aa3d b0f0 873d 2f7a b93d
00000340: 4bcb 94bd a4f1 21bc c33a 26bf 8156 d1be
00000350: 57e8 64be 9f9c afbf 658f e43e 5bc1 01bd
00000360: 8669 8abe 1adc 35be 3c66 fcbe d76e 81be
00000370: 366a b7bf 32fb e53d 2d54 b53c 2bcd 1dbf
00000380: f235 163f 69b3 cb3c 743b fb3c 0ee6 8b3d
00000390: 727e ae3d 5db3 b53d 4ac4 7a3d d4b3 303d
000003a0: 9ee8 9b3c dd21 a03d 138b 663e 78d2 7f3d
000003b0: 02f9 983d 1e8f 923c 19a3 023d 01f1 a53d
000003c0: afa7 8a3d 87c1 a33c 01fc aa3d d521 273c
000003d0: 5b6a 9dbe 967a 9cbe 7809 efbc 8033 3ebe
000003e0: 64e0 7a3e 2832 d5bc 7c18 213e 8380 b43d
000003f0: 4def 1dbf c35d 463d 2fe6 503e 9d45 963e

classifier.1.bias f4 [10]
-0.045837738 -0.16077417 0.1988176 0.07805443 -0.4723948 0.23915529 0.31778625 0.118181095
-0.03143833 -0.2910206
00000000: 5ac0 3bbd fca1 24be d796 4b3e 00db 9f3d
00000010: bbdd f1be 20e5 743e e1b4 a23e ee08 f23d
00000020: 7ac5 00bd a700 95be
