models/EMNISTmodel.pt (torch, 239728 bytes, 8 tensors)

layer1.0.weight f4 [16, 1, 3, 3]
00000000: ebd5 c1be 8144 e5bd d0ca 8abe cbbe 39be
00000010: 1b80 dabd c814 8b3e db3c f73d 8b39 5bbe
00000020: 702d 97be b058 6fbe 3054 e2be 7a96 2ebe
00000030: 7ade dbbe efe6 f93c c7e5 113e 34df 233f
00000040: 51b5 febc dbdf d83d 1de6 843e d491 dabe
00000050: 580f 23bf 4f77 8fbe 1f7a e9be 7693 5dbf
00000060: 4b31 9fbf ca35 6ebf 8224 cebe e774 d0bb
00000070: 727f 78be c191 ac3c d8f3 94be 2238 823e
00000080: 50ed a1be 1dd1 99be 25d6 64be fc26 6ebe
00000090: 993a a9bf 60f4 48be 1915 ae3e 5490 18bf
000000a0: 01d9 71bd d475 aa3e 0b30 63bd ff41 8cbf
000000b0: adfb efbd 2e1a cfbe c56e d9be a0fa 92bf
000000c0: afa3 57be b3ea 2bbf 06c5 14bf e974 38be
000000d0: eebe 9cbe a226 0c3e 5255 c33d 73d0 8bbe
000000e0: 065d ac3e 087c 7bbe ff93 59bd 357a e83d
000000f0: bad0 cdbe 81b5 013d 3e25 c33e fc3b b4be
00000100: fe25 1abf 2a44 d4bd 554e 7abe a200 b4bd
00000110: 4311 203d 3755 98be 0d26 36bc eb36 98be
00000120: 1252 eb3c 70e7 06bf edb2 ccbe 22fd 47bf
00000130: d85f 08bf 60aa a3bd 8a2f 39bf 914e 95bf
00000140: da63 86bf c644 1f3e d961 a8bd ce02 95bd
00000150: 6de4 983d 732e c33d 3746 f73c 458a dabd
00000160: 9ccc 6a3d b1cb 903e 0dd6 52bf 0146 d3be
00000170: 532f 313f 5e3e ebbe 05f0 31bf 1b77 10bf
00000180: 641e bcbf c6ab 56c0 795d cfbf 9ccb 713e
00000190: 5e10 a5be 36d6 a5be 5af7 6cbc cafd 063c
000001a0: 4352 acbd 2575 a93e 01ef 1f3e 1c8f 1bbf
000001b0: 4aad 0ebe 4fe3 2ebe ba74 20bf 7a5f c8be
000001c0: 1e7b 2fbf 5397 a5be 4ebd c2be 1184 8fbe
000001d0: 072e 063f ffb0 13be edcd 44be 8e12 4cbe
000001e0: 387b a4be 2d27 21bd 126f 4abe a4ea 373d
000001f0: a610 33be acb6 33be 6c65 87bd 4729 e03d
00000200: 696e f0bc 85c0 b3bd 3aa7 80be 49c8 743c
00000210: cec7 a73d b756 9cbe a14c 29be 9f8d cf3e
00000220: 0cf3 a63d b5e2 96be 284c 5cbd 8804 86bd
00000230: fc24 7dbf 82d6 57bf 877e 7cbf 9686 85bf
-0.3785852 -0.11194707 -0.2710786 -0.18139188 -0.106689654 0.27164292 0.12072154 -0.2140867
-0.29526854 -0.23373675 -0.44204855 -0.1704959 -0.42943174 0.030505626 0.1424781 0.64012456
-0.031092318 0.10589572 0.25956813 -0.42689383 -0.6369529 -0.28020713 -0.45600984 -0.8655313
-1.2436918 -0.93050826 -0.40262228 -0.006361592 -0.24267367 0.021065595 -0.29092288 0.2543345
-0.31626368 -0.30042353 -0.22347315 -0.23257059 -1.3221008 -0.19624472 0.3400047 -0.5959523
-0.05904484 0.3329302 -0.05546574 -1.095764 -0.11717925 -0.4044966 -0.42467323 -1.1482735
-0.21058534 -0.67155 -0.58113134 -0.18013348 -0.30614418 0.13686612 0.09537758 -0.27307472
0.3366472 -0.24559033 -0.053119656 0.11351434 -0.40198308 0.031667236 0.3811435 -0.35202014
-0.6021422 -0.10364564 -0.24443944 -0.08789183 0.039078962 -0.29752514 -0.01111747 -0.297294
0.028725658 -0.52696896 -0.3998026 -0.78120625 -0.53271246 -0.07991481 -0.72338164 -1.1664602
-1.0499222 0.15553579 -0.08221788 -0.072759256 0.07465444 0.09530344 0.030184848 -0.10670904
0.057324037 0.28280404 -0.82357866 -0.41264346 0.69212836 -0.4594602 -0.69506866 -0.5643174
-1.4696774 -3.3542342 -1.62004 0.23612827 -0.3223905 -0.32389992 -0.01446327 0.008239219
-0.08414128 0.33097187 0.15618517 -0.6076524 -0.13933292 -0.17078899 -0.6267811 -0.39135343
-0.68547237 -0.32342014 -0.38035053 -0.28030446 0.5241398 -0.14422987 -0.1921918 -0.19928953
-0.32125258 -0.039344 -0.19768932 0.044901505 -0.1748682 -0.17550153 -0.066111416 0.10945373
-0.029349523 -0.087769546 -0.25127584 0.01494033 0.081924066 -0.30534908 -0.16533138 0.40537736
0.08151826 -0.2946984 -0.053783566 -0.06543833 -0.9888456 -0.8431169 -0.98630565 -1.0431697

layer1.0.bias f4 [16]
00000000: b11d acbe 6438 b7bd 297f 5ebe 13a9 2fbe
00000010: 1897 6dbd c7d2 67be 4bbf edbd 08b2 f7be
00000020: f2d4 d6bc 4b74 9d3a e03b 4bbe d462 d6bc
00000030: 69c8 47bd f14b 0abf de99 1abe 0dee e7bd
-0.33616403 -0.089463025 -0.21728195 -0.1715434 -0.058005422 -0.22638999 -0.11608752 -0.48378015
-0.026224587 0.0012012807 -0.19847059 -0.026170172 -0.04877511 -0.5402213 -0.15097758 -0.113247015

layer2.0.weight f4 [32, 16, 3, 3]
00000000: 68c4 e3bc d263 a93c 7f40 81bd d758 f4bc
00000010: 3c66 df3b 8eef f6bd 3c95 b3bd 6ba5 c6bd
00000020: 1524 41bc 76ab 2c3d 08a2 0abd 02a8 86bd
00000030: 0129 2cbd 4e9a 643c 195d 83bd 7e14 78bd
00000040: c48c a6bd dd2c 00be 17fe 1bbe 1a1a dbbd
00000050: 2ed1 02be 8606 d93b 7e39 e3bd cbb3 e7bd
00000060: 996e 21bd 95c3 a0bd e851 d9bd 08ff 903d
00000070: f080 30bd a79b a73d 3fda a3bc 03a6 533d
00000080: b445 6b3c 819a dfbd 07e8 bdbb 1963 8fbc
00000090: 01d4 4cbd 0ce1 ddbd f64b ffbd 7b96 cebd
000000a0: b4fa 5bbd f12f 99bd 3f3d bdbb 9d8f 81bd
000000b0: c756 05be f5c2 d7bb ce83 71bd da22 ef3b
000000c0: f954 cc3b 5e39 3e3c bc9a 00be b11b 1d3d
000000d0: d1f8 e3bd 5f3b 8cbd 3b94 efbd d13d 5cbd
000000e0: efff dfbc bee7 ebbd ecaa 923c b2db 72bc
000000f0: 9eec b2bd a7d9 87bd 6067 fabd 75bb 853b
00000100: 3463 43bd 55db 0a3d 8e64 8abd 6f87 87bc
00000110: 3c63 94bd 1b4c cabd 3a68 9cbd 16c9 393c
00000120: b85f 833c c2a3 3ebd dd7a f2bd dbc7 8ebd
00000130: f9b5 f2bc 4020 13bd 0027 6abd fb23 91bd
00000140: 5f20 f4bd 4e77 cbbd 6a17 aabd e1b0 c7ba
00000150: 118d f0bc 62b9 463b 1efe 78bd 52a6 4f3b
00000160: 7640 673b d760 74bd bb34 adbd 86bb 44bd
00000170: 15aa f7bc fa17 26bd aa93 c9bc 71c8 ecbc
00000180: 0ee8 bbbd 7974 a1bd 1b89 43bd 9739 0fbe
00000190: 90b8 9bbc da55 f7ba 41ad c6bb 0b0c 57bc
000001a0: b7c1 bcbc 9a8c cabb 6aea 8dbd 88ae 70bd
000001b0: 7f77 04bd fbde 2dbd 2d5e f7bd 050c e4bd
000001c0: f19e bdbc a46b 14bc 239a 813c 05fd d3bc
000001d0: b6f1 a1bd d9ab a1bd 0a22 83bc 8d92 13be
000001e0: b077 e3bd 3a98 c3bd e502 d9bd 0f43 d63c
000001f0: 310e b8bd d7b9 a0bc ee16 07be 87b7 8dbd
00000200: 608b 81bc 69ed acbd d346 92bd 3a55 f7bd
00000210: fcd3 fcbd 51ae 01be 9ccb 3ebd c20d a6bd
00000220: 65b1 abbd 03d0 25be 31a0 9cbd 3630 3ebc
00000230: 3721 ddbd 203a 0dbc 6789 f03c 8ac6 4dbd
00000240: a2e9 083d 8679 da3b 0c5e 27bd d908 d9bd
00000250: 4cf7 f43d 574d 18bd cc2d 2bbd 5bfc 81bd
00000260: 7e9a 023c 7b61 dabd d38c 1dbd d8a0 0bbe
00000270: 585d aebd 7506 7fbd 8d9a 3abd 82a2 09bd
00000280: 9d69 01be 19af b4bc c98b 60bc 5dfb a6bc
00000290: 2939 8dbc 2c97 52bd 1058 e8bd 139a 7cbd
000002a0: af27 07bc 18b3 d7bd 7336 b9bd 8433 7ebd
000002b0: 8337 7abd e0d9 87bd 56aa 1a3b 10d0 293d
000002c0: 5b29 443d 7703 353c ffb0 95bd 60b1 56bd
000002d0: 76e2 ae3b 9423 d8bd e1cc 83bc 6923 413c
000002e0: fdd4 e8bd 6595 8f3a 7d41 4d3c 3715 c7bd
000002f0: a7b5 2abd 8f34 11be 49d0 9ebd ad73 8dbc
00000300: 1475 bfbd ee2a 5bbd 351e cdbd 5b3a afbd
00000310: 375a 07be b3d1 a6bd ec0a 02be 48c9 f4bd
00000320: 377f 9dbc 9d0f 993c e035 56bd c2bf dcbd
00000330: dec9 43bd 9a6b 01bd 6ccf c7bd 40fb 7bbd
00000340: 70f0 57bd 7e12 123e 64a9 81bd 2658 a9bc
00000350: 6e60 3abd 17f7 02be 3c5a 19bd 59f9 873d
00000360: 3e15 f4bc 3802 15bd 086e abbd 00f3 55bc
00000370: bb3c 073c 13c7 37bd bf2c 69bc 273b c83b
00000380: 301c 4cbd 15f6 09be 8f4c 6abc 5b75 ccbd
00000390: 9c9c 1bbc f738 fabd cdd3 d7bd 39ea 89bd
000003a0: 6944 87bd 7f39 b1bd 25e9 83bc 4187 9ebc
000003b0: 5407 c8bd aa4f 97bd 025a 643d 7955 bbbd
000003c0: 983d a7bc 3d52 63bd a50e 12be ab6a bbbd
000003d0: 6c30 8cbd e100 0cbd 3b59 adbd 37e0 e3bd
000003e0: 3ea7 b43b 060b c2bd 90c7 a43c b6bb 03bd
000003f0: 9c53 06be 20e2 8bbc 3acb 8439 5f56 8e3c
-0.027803615 0.02067748 -0.0631113 -0.029827518 0.006817607 -0.1205741 -0.087686986 -0.0969952
-0.011788388 0.042155705 -0.03384593 -0.06575014 -0.042031292 0.013952805 -0.06414241 -0.060566418
-0.08132318 -0.12517114 -0.15233646 -0.10698338 -0.12775108 0.006623092 -0.1109495 -0.1131359
-0.039412115 -0.07849804 -0.106113255 0.07079893 -0.043091714 0.08183985 -0.020001529 0.051671993
0.01435988 -0.10918141 -0.005795482 -0.017503308 -0.05000687 -0.1083394 -0.1246566 -0.100872956
-0.053705886 -0.07479847 -0.0057751234 -0.0632622 -0.13021384 -0.00658452 -0.05896359 0.007297856
0.0062357155 0.011610357 -0.12559026 0.038356487 -0.11131442 -0.06847262 -0.116981946 -0.05376989
-0.027343718 -0.11518811 0.017903768 -0.014822887 -0.087365374 -0.06633311 -0.122267485 0.0040811845
-0.04770203 0.033900578 -0.067574605 -0.016544072 -0.0724549 -0.09877797 -0.07637067 0.0113394465
0.016036853 -0.04654289 -0.118398406 -0.06971713 -0.029627787 -0.035919428 -0.0571661 -0.07086941
-0.11920237 -0.09934865 -0.08305247 -0.0015235209 -0.02936414 0.00303229 -0.06078922 0.0031684828
0.0035286224 -0.059662666 -0.08457323 -0.0480304 -0.030232469 -0.04055021 -0.024606545 -0.028904172
-0.0917512 -0.078835435 -0.047738176 -0.13986813 -0.019008905 -0.001887019 -0.006063134 -0.01312543
-0.02304159 -0.006181312 -0.069294766 -0.058760196 -0.032340523 -0.04244898 -0.120785095 -0.11135105
-0.023147078 -0.009058867 0.015820568 -0.025877485 -0.07907431 -0.078941055 -0.016007442 -0.14411373
-0.11106813 -0.09550519 -0.10596255 0.026155023 -0.08987082 -0.019619865 -0.1319234 -0.06919771
-0.01581353 -0.0844372 -0.07142415 -0.120768026 -0.1234512 -0.12664153 -0.046580896 -0.08108093
-0.08383445 -0.16192631 -0.076477416 -0.011608174 -0.10797351 -0.008619815 0.029362394 -0.05023817
0.033425935 0.0066673188 -0.040861174 -0.10597391 0.11961231 -0.037183132 -0.041791722 -0.06346961
0.007971404 -0.10663124 -0.03846438 -0.13635576 -0.08513898 -0.062262017 -0.045557547 -0.033602245
-0.12637945 -0.02205615 -0.013705202 -0.020383531 -0.01723917 -0.0514137 -0.113449216 -0.061670374
-0.008249207 -0.10532206 -0.090435885 -0.062060848 -0.061088096 -0.06633353 0.0023600063 0.04145819
0.047891002 0.011048189 -0.0730915 -0.05241525 0.005337055 -0.10553661 -0.016088905 0.011788228
-0.11368749 0.0010954557 0.012527821 -0.09720843 -0.041677143 -0.14180206 -0.07754571 -0.017267073
-0.09348503 -0.053507738 -0.10015527 -0.08556052 -0.13218008 -0.08145466 -0.12699479 -0.11952454
-0.0192257 0.018684203 -0.052297473 -0.107787624 -0.047799937 -0.031596757 -0.097563595 -0.061518908
-0.052719533 0.14264867 -0.06331137 -0.020671915 -0.04550212 -0.1278957 -0.03743957 0.06639356
-0.029795285 -0.03637907 -0.08370596 -0.013058424 0.008254225 -0.044867586 -0.01423186 0.006110567
-0.04983157 -0.13472779 -0.01430048 -0.09983321 -0.009497788 -0.122178964 -0.10538445 -0.067341276
-0.06604845 -0.08653545 -0.016102383 -0.019351603 -0.09767023 -0.073882416 0.0557499 -0.09147162
-0.020415112 -0.05549835 -0.14263399 -0.09151205 -0.06845173 -0.034180526 -0.08464285 -0.1112675
0.005513101 -0.09474759 0.02011469 -0.032161437 -0.13117832 -0.017075598 0.00025328418 0.01737517

layer2.0.bias f4 [32]
00000000: e2ac 9dbd 5990 05be 4f85 c6bd 5b43 29bf
00000010: 02be aabe bfb9 d1bd a6ad 99bd 786e c2bd
00000020: 56f6 a6be 8b83 a0be c1e1 b0be a6d9 8abd
00000030: a278 28bd 1ce4 50bd 17f6 48bc 3e6a 0dbe
00000040: eb49 10be c129 9fbe de34 53bd 917c c1bc
00000050: e97d 1ebd e1bf b5bd 822a 1cbd 6ca9 84bd
00000060: 1908 70be db97 c1be df16 a8bd 0b7b e0bd
00000070: 80ae 48bd af8b c0bd 54fd 9ebd dff4 03be
-0.076989904 -0.13043346 -0.09693395 -0.661184 -0.3334809 -0.102405064 -0.07503824 -0.094937265
-0.32609814 -0.3135036 -0.34547237 -0.067797944 -0.04113067 -0.050998792 -0.012265704 -0.1381006
-0.14090697 -0.31086543 -0.05156409 -0.023618968 -0.038694296 -0.088744886 -0.038126476 -0.06477627
-0.23440589 -0.3781117 -0.08207487 -0.109609686 -0.04899454 -0.094016425 -0.07763162 -0.1288638

layer3.0.weight f4 [64, 32, 3, 3]
00000000: 844d 88bd 76e0 c1bc 3844 c7bd fc9a 22bd
00000010: 0f0a 35bd 1f38 a4bd f574 a7bd 2a68 dcbd
00000020: c6a0 ddbd b80d f0bd 190d 68bd 6183 30bd
00000030: 7680 a6bc 421a 25bd f552 bdbd 7eb5 c0bb
00000040: 661d 73bd 44c0 97ba c13b f3bd 1b54 9bbd
00000050: 95fd eebc 2ed6 09bd 717b afbd bc75 a0ba
00000060: 51c0 04bc d905 8ebd 6db0 d23c 6177 03bd
00000070: 03aa 42bb 4eff bdbd 118f 043d 3e92 3fbd
00000080: 0bf7 f53c f47a 7dbd 3d56 95bd e6ff 9cbd
00000090: fc5f f1bc 71a3 ad3c cbf5 3b3b 6d2f 0e3d
000000a0: 04d1 54bd ba38 72bc 560b a3ba a43e 29bd
000000b0: d0db 87bc c84d ddbd 60b8 edbd 7ce2 4cbc
000000c0: ae1f 99bd 38a3 3abc 7331 43bd 0e4d 39bd
000000d0: 3f74 f5bc 984c a3bd 8e98 84bb 0bf7 293d
000000e0: 24b7 3dbd e4e5 9d3d d1b9 37bd 2b62 33bd
000000f0: d939 10bb 8da7 46bd 5cb7 8fbd 07c5 bf3d
00000100: f801 9ebd a1b0 2a3b 92dd a9bd fb5f cabd
00000110: dcfe 023d 5976 d1bc 795d 753c 5c20 adbc
00000120: bb42 eebd b35c d9bd 5d1f d2ba db28 bfbc
00000130: a0ba 47bc 20dd 52bd 622b 92bd 7f30 26bd
00000140: 5af9 a7bd b4f7 20bb 68c5 1cbc 4133 443d
00000150: e91f 723d 3319 633d 994b a53b a068 703d
00000160: 88bd 54bd 4d06 e63d a3d9 f0bd b967 75bd
00000170: 3bc6 d3bc d72e 913c 82e7 dbbd 5ab5 efbd
00000180: fa0d 67bd 96a2 e23d 7d4b ea3d 162a 65bd
00000190: 851f 56bd c7e7 34bd 0464 f5bb afbf e2bd
000001a0: 7f56 f0bd 8f7c 91bc 50ce 40bd fb18 21bd
000001b0: 73d5 463d aca3 64bd b264 71bd 312a afbc
000001c0: 6653 b53c 8960 053c ab35 3dbd 0c8d dabd
000001d0: e76b 0f3d 12af ccbd 5393 0cbb 25bf 13bd
000001e0: a4a5 95bd dd46 6fbd 1bfc a8bd c0c3 b7bd
000001f0: 7835 7dbd 6507 6bbd 37e9 e3bd 363c 72bd
00000200: 8476 1abc 2462 6dbc 7212 c1bd e9d1 efbd
00000210: 23b7 92bc ccc0 48bd 9265 c5bd beb1 2ebd
00000220: 0db9 dabc 1385 ecbd 2b5f 23bd 9325 18bc
00000230: 951f e2bc 48b4 5fbd 6517 48bc 6ffd 9cbd
00000240: d8d2 22bd 5575 22bc 033d 94bd feab dabd
00000250: 1b64 d7bd c67c 71bd e6db a9bd 6e7b 983d
00000260: 45ce 923c 7a79 90bc 4d34 9ebd 1a6b e5bd
00000270: 4268 c2bc 6ca2 9abd 884b 0fbd c95f a7bd
00000280: eb99 4f3d 0ce8 62bc 4d56 f8bc cb2a 47bd
00000290: 30e5 90bd fe3c 933b 89b6 133b b931 ba3d
000002a0: 1cea cf3c 811a 7b3d c43f 44bd eedc 96bd
000002b0: ac6e b9bc b1eb adbd d990 cbbd 3835 b5bd
000002c0: 3f91 d7bd 4ff0 1abd a5bd 25bc 2f5a eebc
000002d0: 786b d7bd 82a5 afbd ac19 66bd 346d e3bd
000002e0: b974 0fbc 4915 5fbd ff18 57bc 03c6 78bd
000002f0: 6698 853c 0844 43bd aa70 ffbc 6cfd d53d
00000300: 6dc7 0bbd 554b 4cbd abf8 e0bc 7c6a 83bd
00000310: 577c a73d e646 d13d 7270 4bbd 6c1b f3bd
00000320: 8248 95bd 8d92 88bd 1a17 d3bd a12a 05bc
00000330: 941d e2bd 8836 c3bd db9b 82bd 436f f0bd
00000340: 97a4 8b3c db92 66bc e1c6 e1ba 3d07 02bd
00000350: b13d 2bbd 74cf 203d c727 453d 318c 623b
00000360: f0bf b0bc d187 f1bd ff28 9cbd 0d99 9dbb
00000370: c3f9 debc 2db1 21bd e039 b4bc 4daa d7bd
00000380: 245e e6bd ce88 61bd 7636 9cbc c83e 35bc
00000390: 1b5b 5cbd dc00 a9bc 89aa 6fbb 8719 2fbc
000003a0: 5dd3 45bc 2753 81bd 10b4 fbbb f6eb 163b
000003b0: aa39 c53c 0dfe b8bd dbe9 c93c 07fb 14bd
000003c0: 3357 eabd 8a6e debd 9e70 2bbc fa8c cbbd
000003d0: b33c 4cbd a977 8dbd 0e0d 82bc 48fc dabd
000003e0: 96a2 19bc c5b6 80bd 75e6 35bd 4901 873c
000003f0: c926 1ebd 15bd 563d 3cb0 2c3d 8f57 013d
-0.0665541 -0.023666602 -0.097298086 -0.039698586 -0.044199046 -0.08018517 -0.08176605 -0.10762055
-0.10821681 -0.11721367 -0.056653116 -0.043094043 -0.020324927 -0.040308245 -0.092443384 -0.0058810106
-0.05935421 -0.0011577685 -0.118766315 -0.07584401 -0.029173652 -0.033651523 -0.085684665 -0.0012242119
-0.008102492 -0.06934709 0.025718892 -0.03209627 -0.0029703386 -0.09277211 0.032363 -0.046770327
0.030025026 -0.061884835 -0.07291839 -0.07665996 -0.029464714 0.021196099 0.002868044 0.034713197
-0.051957145 -0.0147840325 -0.0012439291 -0.041319504 -0.016584307 -0.10805851 -0.11607432 -0.01250517
-0.074767455 -0.011391453 -0.04765458 -0.0452395 -0.029962657 -0.079735935 -0.0040465062 0.041495364
-0.046317235 0.07709864 -0.044854943 -0.043794792 -0.0022007136 -0.048499633 -0.07017395 0.09363752
-0.07715219 0.002604522 -0.08294214 -0.09881588 0.031981334 -0.025569128 0.014975899 -0.021133594
-0.116338216 -0.10613384 -0.0016031076 -0.023334911 -0.012190491 -0.051480412 -0.07137181 -0.040573593
-0.08201857 -0.0024561705 -0.00956855 0.047900442 0.059112463 0.055443954 0.0050444123 0.05869353
-0.051938564 0.112316705 -0.11760261 -0.05991337 -0.02585136 0.01772253 -0.10737516 -0.11704512
-0.056409813 0.11066167 0.114401795 -0.05594834 -0.052276153 -0.044166353 -0.0074887294 -0.11071717
-0.11735248 -0.01775959 -0.047071755 -0.039330464 0.048543405 -0.055820152 -0.05893392 -0.021382423
0.022134494 0.008140692 -0.04619376 -0.10671434 0.035015013 -0.099943295 -0.0021450117 -0.03607096
-0.07306984 -0.05841719 -0.0825121 -0.08972883 -0.06181857 -0.0573801 -0.111284666 -0.059139453
-0.00942767 -0.014488731 -0.09427346 -0.11709959 -0.017909592 -0.04901199 -0.096385136 -0.042649977
-0.026699567 -0.115488194 -0.03988568 -0.009286302 -0.02760295 -0.05461529 -0.012212609 -0.07665526
-0.039751858 -0.009915669 -0.072381996 -0.10677336 -0.105171405 -0.058956884 -0.082938954 0.07445417
0.017920623 -0.01763605 -0.07724819 -0.112020686 -0.023731355 -0.07550511 -0.03498414 -0.081725664
0.050683897 -0.01384927 -0.030314589 -0.048624795 -0.07074964 0.004493355 0.002253922 0.09091515
0.025380187 0.061304573 -0.047912374 -0.07366358 -0.02263578 -0.0849222 -0.09939737 -0.08848041
-0.1052575 -0.037826832 -0.010116016 -0.029095737 -0.10518545 -0.0857649 -0.056176826 -0.11104813
-0.008755856 -0.05446366 -0.013128518 -0.060735714 0.01630802 -0.0476723 -0.031181652 0.10448727
-0.034125734 -0.04987653 -0.027462324 -0.06416795 0.08178013 0.10218601 -0.049667783 -0.11870465
-0.072892204 -0.06668577 -0.10307141 -0.008127839 -0.11040798 -0.095318854 -0.06377383 -0.117399715
0.017046256 -0.014073099 -0.0017225408 -0.031745184 -0.04180688 0.039260343 0.048133638 0.0034568424
-0.021575898 -0.11793483 -0.07625007 -0.004809505 -0.027218705 -0.03947561 -0.022000253 -0.10530529
-0.11248425 -0.055062108 -0.019068938 -0.0110623315 -0.053797822 -0.020630293 -0.0036570153 -0.010687239
-0.012074319 -0.06314688 -0.007681377 0.0023028827 0.024075348 -0.09032831 0.024647644 -0.03637221
-0.11442413 -0.108609274 -0.010463862 -0.099389985 -0.049862575 -0.06907589 -0.015875366 -0.1069265
-0.009377142 -0.062848605 -0.044409234 0.016480105 -0.038611207 0.052426416 0.042160258 0.031577643

layer3.0.bias f4 [64]
00000000: eed1 39be 06ae 3fbe eaff 01bf 643f 0d3a
00000010: 20cc a13e 3694 fbbd 7c7a 9dbe c0de d4ba
00000020: eda3 cb3c e1e7 c9be 70cd dfbc d2c1 80bd
00000030: e3c3 82be 232f 05bf a59c b3bd 609c a8be
00000040: b621 d8be af90 65bd b509 2fbe c05f 57bf
00000050: 3acd dabe 3ead b6be 963a a7bb 0c4b 2bbe
00000060: d54d d3bd 8337 95bd 49f8 d7bd f79d 58bd
00000070: 60b9 8fbe 929a 99be a352 1bbe bcbe aabd
00000080: 6101 e3bd 02d7 0bbf 8806 35be 0be0 bcbd
00000090: a124 48be 0a18 d3bd e07f 8dbd 8f23 24be
000000a0: 8c6b 2bbe efca d9be 2d41 e4bd 0df3 d2bd
000000b0: fc75 fcbd 9091 ccbd 932d 73bd f91e 5ebe
000000c0: 5116 aabd 4c7f 84bd 3b37 31bd 1ae5 ac3e
000000d0: 3b85 c7be 289f 67bd 3aac 1ebe 9186 aabe
000000e0: 0384 53bd 055d 8abd 74d8 04be cdaa a2bd
000000f0: 59ef d5bd c87b d6bd 7c60 f2bd 6107 fcbd
-0.18146488 -0.18718728 -0.5078112 0.0005388169 0.31601048 -0.12284128 -0.3075751 -0.0016240701
0.02485844 -0.39434722 -0.02731964 -0.06286968 -0.25540075 -0.5202505 -0.08770112 -0.32931805
-0.4221322 -0.056046184 -0.17093547 -0.8413048 -0.427347 -0.35679048 -0.0051034195 -0.16727847
-0.1031758 -0.07285979 -0.105454035 -0.052885022 -0.28071117 -0.3000074 -0.15168242 -0.08337161
-0.110842474 -0.5462495 -0.17678273 -0.0922242 -0.19545223 -0.103073195 -0.06909156 -0.1602919
-0.16740245 -0.4253764 -0.11145244 -0.103002645 -0.12327191 -0.09988701 -0.059369635 -0.21691503
-0.08305038 -0.064695925 -0.043265563 0.3376854 -0.38968834 -0.056548268 -0.15495387 -0.3330579
-0.051639568 -0.06756023 -0.12973195 -0.07942734 -0.104460426 -0.10472828 -0.11834809 -0.12306095

classifier.1.weight f4 [62, 576]
00000000: 5c52 e1bd 65bb 27be 737f 4abd 3195 b9bd
00000010: 27cd da3c 0d8e b23d f60e 913d 38f7 793d
00000020: 17fc 783d f10f 7bbd 51bd 2fbf 5cf6 1fbf
00000030: a849 0d3e c4d7 a03d d452 efbc d11a 6dbe
00000040: e26f f2be 9349 74be 580a 88bf 65fa 913d
00000050: 8601 0f3f a41d c0bf 351d 55be 7527 d43e
00000060: 389e 94bf c74a d1be 93e9 623d 335f 6dbe
00000070: 644d 3fbf 5dc4 65c0 40a4 a5bf adc6 8f3e
00000080: 7c36 11be 96e4 4bbf 0d8a 0ebe a54c 6b3f
00000090: 575f 243f 6096 c0be 930c cd3e 43b6 8e3f
000000a0: f55c 85bf 3595 5dc0 8593 1fc0 5fcd 07c0
000000b0: ce97 e6bf ed25 19bd 9616 22bd f14c 8dbc
000000c0: afe1 c2bd a06a abbd e398 ebbc d974 1abd
000000d0: 66ff 85bd 390b 3cbc 1b8f 5b3e 2444 4f3e
000000e0: e025 613e b711 8dbe 0ab3 0fbd 4f15 47bd
000000f0: 20c4 a2bd ddbd 05be 1ab8 b2be 1184 bdbf
00000100: 5ab2 50c0 ad7e 2a3e c723 84bd 0f36 8dbf
00000110: b8bc 9c3d b888 d33e b1e3 28c0 6ed9 42bf
00000120: 4b16 e1bf 9f9e 8a3e 9201 96bf 3377 b0bf
00000130: 1ae2 723f 27bc 3dc0 79fc 3dc0 ee75 213f
00000140: 8c44 64bf 87fd b83d cf98 cd3d 5975 533d
00000150: a2b8 033d 4899 cf3c 5f4f 6c3d b1d4 f53c
00000160: 017a 823d cbac 803e d1e6 3c3d 7be8 ea3c
00000170: 5303 893d 0a4a 4b3c e99a d3bc 687d 67bd
00000180: 777d 2b3d 88d3 5d3d b049 6d3d c399 1fbf
00000190: 1cc6 12c0 6e95 85c0 6c14 71c0 cdc7 ecbf
000001a0: c21d 7cc0 bf4c 383f 9be5 583f cc2a f5c0
000001b0: 2e9a d03c 3f95 b8be 2039 86be 2cdd 52be
000001c0: c59e 45be d868 f23d ec8e 8ebe 639e a9be
000001d0: 75ea 30bd 0b48 b53d ddb1 3cbe 31e4 2ebe
000001e0: 85b7 323e 782c c2bd 86e0 b63c 602f 873e
000001f0: 782b e9be 5c01 eebd d0e6 c33c fb7a f33c
00000200: 4538 49bd 3050 01bd 10a2 a3bd f971 94bd
00000210: ea37 b4bd 2b3f a9bd 752b 093d 8e46 223c
00000220: b2a4 2cbf c28b 93bf 8fcd cabe d45a 70be
00000230: 7101 8fbf eff5 febf c714 18bf 1030 31be
00000240: 93f5 b9be 49b7 1abf b5c5 023b 7b53 603f
00000250: 8d58 ebbf 23fc 7bbf 1eb4 a4bf 37bc ae3d
00000260: d29f 81be 8974 313d 8da4 213d 2a9a 9c3d
00000270: ccd0 7d3d a8f7 8f3d 8629 443d c5e6 cb3d
00000280: b3e0 b53d 4390 cb3d 12cf c5bd 9ea3 6dbd
00000290: b419 c8bb 1c56 cabc 4973 bcbc ebf7 66bc
000002a0: 67fd 7bbd c1a2 64bd e78c 29bc a171 833d
000002b0: 9481 e7bf 3831 a9bf 56b0 d4bd ef7d 4bbf
000002c0: 59cd e1bf 3ee1 d7bd 53a4 9bbf abe5 80c0
000002d0: 7236 05bf 22ee 93bf 72b2 f1bf c299 71bf
000002e0: c360 d4be d34f 5e3d 8f1d 5ebf d4eb 0e3f
000002f0: e901 acbf ecc1 dabc db0f 5d3d c9de c9bd
00000300: 73fc e53c bcef 56be 8aaf 14be ab9c e73c
00000310: 6588 c1be 0a63 0dbe f06d 5fbf 90ad 40c0
00000320: 76ee afc0 3e2f 37bf 06e7 b2be fda0 35bf
00000330: f3eb acbf ca24 83c0 517a 6f3f 66a1 283d
00000340: 754e 323d d911 2f3d d147 833d fcf5 c43c
00000350: 684e 0f3d 8bfd a33c 6dc1 9c3d f7cb 0c3d
00000360: 77ff 803b 3a24 313d 6076 0fbd 7650 9d3b
00000370: 9abd 10bd d4f4 60bd fdd8 03bd adc6 d1bc
00000380: 1c8c 6b3d a014 82bd 1961 24bd b1f9 8e3b
00000390: 9c8c 95bd a247 b4bb 13d6 81bc b001 83bd
000003a0: 65b0 62b9 732a efbc 7a31 bfbd 07cf 20bd
000003b0: f2ca 783d 7fcc acbc 8cff acbc 4547 8d3d
000003c0: 7854 0ebd c6fb c83d 8f9d 943d 3c0b 373d
000003d0: 18a3 233d f4d0 823d b1c2 a03d 7ec3 9f3c
000003e0: 3b90 e93c e673 733d 6cc3 bb3d 4a38 423d
000003f0: 2353 9a3e cf68 493e 04c2 94bf 1ada 2b3f
-0.11002037 -0.16380079 -0.04943795 -0.09061659 0.026709152 0.087185 0.07082932 0.06102678
0.060787287 -0.0612945 -0.6864825 -0.6248529 0.13797629 0.07853654 -0.0292143 -0.23154761
-0.47350985 -0.23856191 -1.0628157 0.07127837 0.558617 -1.5009046 -0.20811923 0.41436353
-1.1610785 -0.40877363 0.055398535 -0.23180847 -0.74727464 -3.59011 -1.294075 0.28081265
-0.1418094 -0.7964567 -0.1391985 0.91913825 0.6420798 -0.37614727 0.40048656 1.1149372
-1.0418993 -3.4622319 -2.4933789 -2.1219099 -1.8015077 -0.037389684 -0.03957232 -0.017248603
-0.09515702 -0.083699465 -0.028759426 -0.03770909 -0.06542854 -0.011477285 0.21441309 0.20240837
0.21987104 -0.27552578 -0.035082854 -0.048604306 -0.07947564 -0.13060708 -0.34906083 -1.4805928
-3.2608857 0.16649885 -0.064521365 -1.1032122 0.07653183 0.41315246 -2.6388972 -0.7611302
-1.7584928 0.27074143 -1.1719229 -1.3786377 0.94876254 -2.964609 -2.9685347 0.6307057
-0.89167094 0.090327315 0.100389116 0.051625583 0.0321585 0.025341645 0.05769288 0.030008646
0.06370927 0.2513183 0.04611856 0.028675308 0.06690087 0.012407789 -0.025830703 -0.05651608
0.0418677 0.05415681 0.057931602 -0.62343997 -2.2933416 -4.174491 -3.7668715 -1.8498474
-3.9393163 0.71992105 0.8472535 -7.661474 0.025464144 -0.36051366 -0.26215458 -0.20592183
-0.19298847 0.118364036 -0.27843416 -0.33128652 -0.043192346 0.08851632 -0.18427224 -0.17079236
0.1745282 -0.09481138 0.022323858 0.26403332 -0.45540977 -0.11621353 0.02391377 0.029721728
-0.04912593 -0.031570613 -0.07989895 -0.07248301 -0.08799727 -0.082640015 0.03348871 0.009904517
-0.67438805 -1.1527026 -0.39609954 -0.23472148 -1.1172315 -1.9918803 -0.59406704 -0.1730349
-0.3632017 -0.6043592 0.0019954268 0.8762738 -1.8386399 -0.98431605 -1.2867467 0.08531993
-0.25317246 0.043324027 0.03946357 0.07646592 0.061966702 0.070296586 0.047891162 0.09956125
0.088807486 0.09939625 -0.09658636 -0.058017366 -0.0061065797 -0.024699263 -0.023004191 -0.014097194
-0.06152096 -0.055819277 -0.010348535 0.06418157 -1.8086419 -1.3218145 -0.10385196 -0.79489034
-1.7640792 -0.105410084 -1.2159523 -4.0280356 -0.520362 -1.1557047 -1.8882582 -0.9437524
-0.41480073 0.054275345 -0.8676385 0.55828595 -1.3438083 -0.026703797 0.0539702 -0.09856946
0.028074479 -0.20989889 -0.14520088 0.028272947 -0.37799373 -0.13807312 -0.87277126 -3.0105934
-5.497859 -0.7155646 -0.34941882 -0.70948774 -1.3509506 -4.098241 0.93546015 0.041169547
0.043531854 0.04274163 0.06410182 0.024043076 0.034986883 0.02001836 0.076540805 0.034374204
0.003936704 0.04324744 -0.035025 0.0048008515 -0.03533707 -0.054920986 -0.032189358 -0.025607431
0.057506666 -0.0635159 -0.040131662 0.0043632616 -0.0730221 -0.0055017034 -0.015849149 -0.06396806
-0.00021618752 -0.029195046 -0.09335609 -0.039259937 0.06074042 -0.021093605 -0.021117948 0.06898359
-0.034748524 0.09813647 0.072566144 0.04468845 0.03995046 0.06387511 0.078496344 0.019502398
0.028511157 0.0594367 0.09168133 0.047416963 0.30141553 0.19668888 -1.1621709 0.6712967

classifier.1.bias f4 [62]
00000000: 71fb 2c3e b901 293f ed1a 3fbe 292b 1d3e
00000010: 5f1a 333f 12ac 63bd bb9f c93e a79b a0be
00000020: 3abf 6a3f aab2 15bf 5b26 293e 60b4 263e
00000030: d98e 9abe a4c6 1cbe 8101 713f 39d1 93ba
00000040: 1184 62bf 0a15 f43d c43f b0be 1e39 0fbf
00000050: 5ac3 603d 0dae 2abc 3873 60bd 35c2 01bc
00000060: 03d5 6b3e b6dd 51bf 0d99 d63e 1f13 1cbd
00000070: e83e a83e bed7 5abf decd 423f 119f d33d
00000080: 767d fa3e 04e0 babd f9e4 c1be 6f5e 42bf
00000090: b1c8 2d3d d12b 5ebe 7cdd 10bf 3183 80be
000000a0: 317f f33e 4256 d3be 3f34 03bf 824e a9be
000000b0: 942e 0bbf ca19 2dbe d471 2e3f 1504 dbbd
000000c0: 0224 4dbf ebee 043e 4e4f 20bf 37f5 c2be
000000d0: 9d91 3cbf 91cf 69be a36f 2fbf 60e0 40bf
000000e0: aa53 a43d 79d7 d3bd 17ab bc3e 6a61 8e3f
000000f0: bb3a 8abe 6ee8 d93e
0.16892792 0.66018254 -0.18662615 0.15348496 0.69962114 -0.05558402 0.39379677 -0.31368753
0.9169804 -0.58475745 0.16518538 0.16279745 -0.3018711 -0.1531015 0.9414292 -0.0011277563
-0.8848277 0.119180754 -0.3442365 -0.5594653 0.0548738 -0.0104174735 -0.05479738 -0.007919838
0.23030476 -0.8197893 0.41913643 -0.038104173 0.32860494 -0.85485446 0.7609538 0.10333074
0.48923844 -0.09124759 -0.37870005 -0.75925344 0.042427722 -0.21696402 -0.5658796 -0.2510009
0.47557977 -0.41276747 -0.51251596 -0.3306771 -0.5436795 -0.16904369 0.6814244 -0.10694138
-0.8013307 0.12981765 -0.6262101 -0.3807771 -0.7365969 -0.22833087 -0.6852972 -0.7534237
0.0802377 -0.103438325 0.3684928 1.1123478 -0.26997933 0.42560142
