models/MNISTmodel.pt (torch, 119716 bytes, 8 tensors)

layer1.0.weight f4 [16, 1, 3, 3]
000000 85 5e 9a bd f0 93 22 ba b8 a9 d6 be ef a2 95 3e
       -0.075375594 -0.0006201854 -0.4192636 0.2922587
000010 81 75 99 be a9 83 18 be f2 6f 09 be e3 bd d4 3d
       -0.2997246 -0.14893974 -0.1342161 0.103877805
000020 72 ad 09 3e fa 0a 87 bf 10 0d de be 35 cd ca be
       0.1344507 -1.0550225 -0.4336934 -0.39609686
000030 b5 eb 75 bf df 4d 01 bf 41 6a 8b bf dc 71 a1 be
       -0.96062785 -0.50509447 -1.0891801 -0.3153218
000040 a5 24 15 bf 45 5f 39 bf ec 51 9a bf 90 0f 93 3e
       -0.5825904 -0.72410995 -1.205625 0.2872281
000050 2d 40 2c bf 17 df 15 bf c4 51 aa 3e 46 24 8a be
       -0.67285424 -0.58543533 0.33265507 -0.269808
000060 0d c1 e7 be a0 16 7d 3d b3 68 61 bf f3 d8 af 3e
       -0.45264474 0.061789155 -0.88050383 0.34345207
000070 e5 25 36 3e 1f 76 65 3e 4f a2 85 bf a2 a6 c2 3e
       0.17787893 0.22408341 -1.0440158 0.38017756
000080 b9 ca d1 be 71 eb 83 bf 02 7c 93 bf ea 5a cb bf
       -0.40974978 -1.0306226 -1.1522219 -1.588712
000090 6b 2e 60 bf 2f 29 c9 3e 3b be b5 3d 78 1c d2 3e
       -0.8757083 0.39289233 0.08874174 0.41037345
0000a0 27 4b 66 3f c4 a7 2e bf b0 34 03 bd 2a 02 08 bf
       0.89958423 -0.6822474 -0.03203267 -0.531283
0000b0 36 98 62 bf 39 df a7 3e 98 bf eb be 5a a9 66 bf
       -0.88513505 0.32787493 -0.46044612 -0.9010216
0000c0 5d d8 49 bf f4 6a 4b bf 42 b3 f4 3e 95 32 7f bf
       -0.7884577 -0.7946007 0.47793013 -0.9968656
0000d0 5f 69 c0 bd e0 19 d0 3e 5b 17 38 bd cd ac 80 bf
       -0.09395098 0.4064474 -0.04494415 -1.0052735
0000e0 d2 7d b2 bf 5b 7e d4 3e a4 26 01 3f 31 92 9a 3e
       -1.3944647 0.41502652 0.50449586 0.3018966
0000f0 fa e4 7a bf 0a 35 12 bf cc 97 4b be 20 51 96 bf
       -0.9800564 -0.5711218 -0.19882125 -1.1743507
000100 a9 cb 81 bf fc c2 e7 3e c5 e7 5a bd 37 23 bc be
       -1.0140277 0.4526595 -0.05344369 -0.36745617
000110 19 6f 80 bf d7 2b c5 3e f7 ff 24 3e 3a af 8b be
       -1.0033904 0.3851001 0.16113268 -0.27282125
000120 99 e1 c6 3e da 62 53 3d d2 ad 11 3f f4 15 08 bd
       0.38843992 0.051607944 0.56905854 -0.03322406
000130 50 18 35 3c 72 c8 68 3e a7 4a b6 be 37 1e 5a bf
       0.01105316 0.22732714 -0.3560383 -0.85202354
000140 6a d7 1c bf cd 7d 92 bd c0 a2 82 3d 49 f9 6b bd
       -0.61266196 -0.07152901 0.06378698 -0.057610784
000150 5b 5b d6 be 03 66 93 3d 25 05 ac bd 13 fc ba 3e
       -0.41866574 0.071971916 -0.08399419 0.36520442
000160 37 4d 25 3e f0 91 d1 bd 2a 67 d4 be 72 96 09 bf
       0.16142736 -0.102329135 -0.41484958 -0.53745186
000170 04 07 f7 3d e0 99 2e bf 54 1b 1b be b9 20 e1 bb
       0.12061885 -0.68203545 -0.15147144 -0.006870356
000180 d4 c8 64 3d 66 44 67 3e fb 5b 09 bd c2 c6 26 3f
       0.055855587 0.22584686 -0.033534985 0.6514703
000190 c3 25 2e be a4 60 fa bf 36 41 0e 3e ba 3f 3a be
       -0.17006592 -1.9560742 0.13892063 -0.18188372
0001a0 d9 8e 59 bf 25 62 14 bf 19 81 c2 bf 88 08 17 be
       -0.84983593 -0.57962257 -1.5195647 -0.14749348
0001b0 01 62 d6 3d 14 a4 39 3e a3 91 81 3e 43 83 96 be
       0.104679115 0.18128997 0.25306424 -0.2939702
0001c0 6d bd a6 bd 0c 37 dd 3e 7b b0 b4 bc 61 e1 6d 3d
       -0.08141599 0.4320606 -0.022056809 0.058076266
0001d0 85 11 db 3e 5c ba 50 3e 55 be 2c bf 69 b0 8c be
       0.42786804 0.2038359 -0.67477924 -0.2747834
0001e0 76 72 d4 3e 69 6b 90 be 01 3f ca 3d 59 f1 c0 3d
       0.41493577 -0.28206947 0.09875298 0.094210334
0001f0 6c 5b 8a 3e f3 60 8a 3e 56 10 f8 bd 16 a7 6d 3d
       0.27022874 0.2702709 -0.12112491 0.058020674
000200 66 e3 80 be 80 3c 57 bc 8e a8 63 be 12 a2 86 be
       -0.2517349 -0.013136983 -0.22232267 -0.26295525
000210 be 9b 3e be 06 2f 3f be c0 6e 1f bd c9 ed 4c be
       -0.18614098 -0.18670282 -0.03892398 -0.20012583
000220 97 b2 8c bd 6d 6e 83 be ad 51 8a be 42 1e 93 be
       -0.06870001 -0.25670186 -0.2701544 -0.28734022
000230 a9 d7 50 bf 5f a2 e2 bd 6f b0 28 bd 10 5a 44 be
       -0.8157907 -0.11066126 -0.041183885 -0.19174981

layer1.0.bias f4 [16]
000000 8f e8 00 bf c9 1a c5 bc 35 a4 15 bf fd 2c 8a bd
       -0.50354856 -0.024060624 -0.58453685 -0.06746862
000010 bf 4b 00 bf 9a a5 b8 bd ff 5b a3 be 46 1a d7 3c
       -0.5011558 -0.09015961 -0.31906125 0.026257645
000020 6a 77 37 be 13 48 71 bf 3f 0a 0e bf e0 b9 bd bc
       -0.17916647 -0.942506 -0.55484384 -0.023159921
000030 63 ea 1c bf 8d a1 15 be 5e 54 70 be f0 29 50 bf
       -0.61295146 -0.14612408 -0.23469684 -0.8131399

layer2.0.weight f4 [32, 16, 3, 3]
000000 5c fe f1 be a9 e9 d7 be c0 9e fa bd 60 c1 6b 3d
       -0.47264373 -0.42170456 -0.122373104 0.057557464
000010 ab a4 76 be 90 24 43 be 7b b6 3e 3d 61 1c b4 3e
       -0.24086253 -0.19056916 0.046560746 0.351779
000020 26 0b 51 3e 0a 44 a7 3e 62 e5 0f 3e c7 40 45 be
       0.20414409 0.32669097 0.14052346 -0.19262992
000030 a0 f0 61 bd 5f ce 09 3e ce d5 a4 bd 03 8e 50 be
       -0.05516112 0.1345763 -0.080485925 -0.20366673
000040 c0 98 bd 3c 5e 7d 94 3e 73 1e a4 bf 87 6b 0c bf
       0.023144126 0.29001898 -1.2821792 -0.54851574
000050 3c 70 89 3d e5 d5 73 3f ad ed 60 bf 5d 6d 08 be
       0.0671086 0.9524825 -0.87862664 -0.13322969
000060 c7 60 0d be 21 b8 18 be 29 4f 06 bf a6 be e1 3d
       -0.13806449 -0.1491399 -0.5246454 0.110226914
000070 bb 38 17 3e e2 68 5d 3f 80 3f 2e bf f4 05 0f 3d
       0.14767735 0.86488163 -0.68065643 0.034917787
000080 6d 80 be 3e 3c 6e 1c bf f1 de 2c bf 5f a9 91 bd
       0.37207356 -0.61105704 -0.6752768 -0.07112383
000090 2f 41 4a bf e2 b4 ee be 31 e9 f8 3e f3 90 72 3b
       -0.7900571 -0.46622378 0.4861541 0.0037012666
0000a0 76 40 c0 bf 5e ef 6a bf 38 66 6d 3e 23 13 d4 3e
       -1.5019672 -0.91771495 0.23183525 0.4142085
0000b0 ad 8b 4c bf fa 92 c4 be 84 80 1f bf ad 64 24 3f
       -0.7990063 -0.38393384 -0.62305474 0.6421612
0000c0 b7 ad dc 3e 13 5b b9 bf 86 09 91 bf c2 92 ee 3e
       0.43101284 -1.4480919 -1.1331031 0.46596342
0000d0 b6 c4 d1 3e 3b 17 2a bd 33 d8 90 3f 4d a6 e9 be
       0.4097039 -0.04152606 1.1315979 -0.4563469
0000e0 a6 b0 27 3d 98 8c 2f 3e 6c 70 6d bf d4 67 4c bf
       0.04093995 0.17143476 -0.9274967 -0.7984593
0000f0 04 2c 27 3f 31 09 4b 3e c0 57 91 3e 9a d2 6d 3f
       0.6530154 0.19827725 0.2838726 0.9289948
000100 e1 dd d3 be ed d0 a5 3d f2 72 4b 3d 80 32 d7 3e
       -0.41380218 0.0809649 0.049670167 0.42030716
000110 8c fa 3d 3b 62 55 6c be 4b 2b 9a 3e 83 3c af 3e
       0.002898845 -0.23079446 0.30111155 0.34225854
000120 35 89 09 be de 71 8c 3d 59 3c c7 3e e1 ab 4f bf
       -0.13431247 0.06857656 0.3891323 -0.8112164
000130 ca 81 34 3e 94 52 61 3f 56 ee af be 2b 72 bf bd
       0.17627636 0.8801663 -0.34361523 -0.09347948
000140 3b 08 8e bf 89 78 ae bf 98 59 81 be b7 79 b4 3e
       -1.1096262 -1.3630534 -0.25263667 0.3524911
000150 59 9e 58 be 5f 4e aa bf 28 f0 ed be c5 00 f0 3e
       -0.21154155 -1.3305167 -0.46472287 0.46875587
000160 66 3e 1e be 0d 41 62 be b1 4a 47 bf c8 04 2b bf
       -0.1545349 -0.22095127 -0.77848345 -0.6680417
000170 b5 81 a3 3e b1 9f 85 3d 21 24 9f be 87 b1 6b bf
       0.31934896 0.06524599 -0.31082252 -0.9206776
000180 70 a5 b2 3e c7 80 06 be 29 f9 aa bd 7c 73 22 3d
       0.34891844 -0.13135062 -0.08348305 0.039660916
000190 ef f8 ab be 1f d3 32 3f 3e c8 9f bd 08 a4 10 c0
       -0.3358836 0.69853395 -0.07801865 -2.2600117
0001a0 de 5a 2d bf a3 6d 3b bf f3 15 f1 be 2a e4 8a bf
       -0.6771678 -0.7321417 -0.47087058 -1.085088
0001b0 ed 80 b0 bf 5c c6 d2 3e 8f 50 09 3f 98 9e 63 bf
       -1.3789345 0.4116696 0.5363855 -0.8891387
0001c0 a2 4a d7 bf d6 be cf be d9 1c 56 3e 27 b1 22 3f
       -1.6819651 -0.40575284 0.20909442 0.63551563
0001d0 bb 1f bc be 5b 4b 89 bf ae 85 f6 bf 6e f8 24 3e
       -0.36742958 -1.0726122 -1.9259546 0.16110393
0001e0 cb c0 b4 3e f4 15 0c bd 18 81 50 bf 70 97 24 3e
       0.3530334 -0.034200624 -0.8144698 0.16073394
0001f0 86 61 7b 3d f1 f6 ec 3e 96 b9 09 bc 8f 36 99 bd
       0.061372302 0.4628215 -0.008406064 -0.07481109
000200 48 c5 83 3d e0 1a e0 3c 96 29 54 3d 03 e5 2a 3d
       0.06434113 0.027356565 0.051797472 0.04172231
000210 16 fd 3b 3c 0b 31 44 3d 9b 61 fc bc 8a 48 16 bf
       0.011473915 0.047898334 -0.03080826 -0.58704436
000220 56 0b 33 bf 3d 13 0f 3f 11 aa bf bd 83 81 fa be
       -0.6993917 0.5588873 -0.093586095 -0.48926935
000230 9f 17 1c bf e1 12 0f 3e 06 41 88 3e 37 0c 2d be
       -0.6097354 0.13972045 0.2661211 -0.16899191
000240 08 d7 f1 bd 68 a8 2a bd e6 5f 41 bb 44 00 d1 bd
       -0.11808592 -0.04166451 -0.0029506623 -0.10205129
000250 de 4a 75 bc f6 0a 8e bd 03 95 81 bd 41 b2 29 3d
       -0.014971463 -0.069356844 -0.0632725 0.04142976
000260 0a 41 04 3d 8e 4b 48 bd 8d d9 35 be 59 84 80 bd
       0.03228859 -0.04890018 -0.1775877 -0.06275243
000270 22 8a 17 3c 0c e3 b7 bd b3 a3 57 bd 81 9c d7 3b
       0.009249242 -0.08978853 -0.05264635 0.006579936
000280 fc 87 a5 bd 36 1f 23 be 1f 49 05 be e1 c9 ef 3b
       -0.080825776 -0.15929875 -0.13016175 0.007317767
000290 79 4a 03 be b8 2b a6 bc 71 f2 57 3c 71 f1 90 bc
       -0.12821378 -0.020284519 0.013180361 -0.017693253
0002a0 33 a1 de bd d4 20 07 bd 55 3e 86 bd b5 7a e0 bd
       -0.1087059 -0.03299029 -0.06554858 -0.109609045
0002b0 c4 f2 4f be 91 ca 4b be 93 49 43 bd 39 ff 7b bd
       -0.20307451 -0.19901492 -0.047677588 -0.061522696
0002c0 26 c3 a4 bd 55 e5 c4 bd d4 21 be bd eb f4 66 bd
       -0.08045034 -0.09614054 -0.09283796 -0.056385916
0002d0 33 70 d1 bd ec 7b 78 3c 30 56 87 bd 04 19 aa bd
       -0.102264784 0.015166264 -0.06608236 -0.083055526
0002e0 d0 94 e0 bd ed 22 3b bc c4 bf 94 bd c6 20 84 bd
       -0.10965884 -0.011421901 -0.07263139 -0.064515635
0002f0 11 e0 9f bd c2 1a 0c be 2e 5b 9c bc b4 82 bb bd
       -0.07806409 -0.13682082 -0.019086447 -0.09155789
000300 ba 5c 92 bd dc 35 01 be e9 a2 19 be 18 6a 81 bd
       -0.071465924 -0.12618202 -0.15003552 -0.06319064
000310 ca eb 9d bc 34 0e 81 bd 3a b5 71 bd ec 94 fd bd
       -0.019277472 -0.06301537 -0.05901072 -0.1238192
000320 f9 be 23 bd 3a 8b 12 bc bd e6 92 bd f8 5f 28 bd
       -0.039977048 -0.008944327 -0.07172916 -0.041107148
000330 90 18 01 be ce 4f cf bc 9a a1 a3 bd 46 3b 21 bd
       -0.12607026 -0.025306609 -0.079898074 -0.03936317
000340 06 53 90 3b 2c 13 07 bc 5d 0e e4 bd 0a 0d b4 bd
       0.0044044284 -0.008244317 -0.11135552 -0.087915495
000350 81 26 77 bc bf fb 86 bc ed 0e f1 bd 2e bb 06 3d
       -0.015084864 -0.016477464 -0.11770425 0.032893352
000360 c8 ac ed bb 0c d6 90 bd d5 34 e8 bd 17 32 d8 bc
       -0.007253263 -0.07072076 -0.11338202 -0.026391072
000370 f9 9e a6 3c f1 79 c4 bd f1 43 f8 bd 94 a4 eb bc
       0.020339476 -0.09593571 -0.12122334 -0.028765
000380 d2 c5 59 bc c7 52 80 bd 5e 27 b7 bc 53 6a 20 3d
       -0.013291793 -0.062657885 -0.022357639 0.0391639
000390 54 02 b9 bc c3 c0 d7 bc 83 8a 4c 3c 8b b0 79 bd
       -0.022584118 -0.026337033 0.012484196 -0.06095938
0003a0 fd 6b ea bd de 38 d5 3c 8c 79 b1 bb 88 4f 9a bd
       -0.114463784 0.026028093 -0.005416101 -0.07534701
0003b0 03 06 c3 bd 0c f2 c4 bc fb 00 23 bd d7 e2 ce bd
       -0.09522631 -0.024041198 -0.039795857 -0.1010186
0003c0 ea 0a 35 bb 7a fb f0 bd 45 f3 db bd 73 b8 a5 3c
       -0.0027624913 -0.11766715 -0.10739759 0.020229554
0003d0 2c a5 aa bd ad a5 16 be 0b c0 e6 bd 84 11 ca ba
       -0.08332285 -0.14711638 -0.11267098 -0.0015416597
0003e0 5e 88 62 bd a3 7f 8c bd 79 fd 06 be f1 74 9c bd
       -0.05530583 -0.06860282 -0.1318263 -0.07639492
0003f0 7d 11 93 bd 7e 86 c6 bd 65 c8 06 be cd 4b 9a bd
       -0.0718107 -0.09693621 -0.13162382 -0.07533989

layer2.0.bias f4 [32]
000000 01 aa 83 bd 6b 2d 42 bd 3d 9b a9 be 9c 3a 95 be
       -0.0642891 -0.047406595 -0.3312625 -0.29146278
000010 32 fa b1 bd 22 a8 2a be b8 fc 0f bf e4 da 3e bd
       -0.08690299 -0.166657 -0.56244993 -0.04659547
000020 10 8b 95 be 43 6e c9 be a0 9e 4a be 4e 2e 94 bc
       -0.2920766 -0.39341936 -0.19787073 -0.018088486
000030 f4 06 2b 3c e4 5a 9e bd c0 a9 60 bd 61 85 76 be
       0.0104386695 -0.0773218 -0.054849386 -0.24074318
000040 63 9d b3 be 42 f5 b2 be ce cd be be 8f a1 f1 bd
       -0.35081014 -0.34952742 -0.37266392 -0.11798393
000050 1f 72 fd bc cd 54 d6 bd f1 1f 39 be 5f 0a ef 3b
       -0.030938206 -0.10465393 -0.18078591 0.0072949375
000060 d3 6b d7 bd 1e ec c3 bd 30 51 00 be 49 94 20 be
       -0.10518613 -0.0956652 -0.1253097 -0.15681566
000070 f2 ea e0 bb dd 12 16 bf ca c0 f0 bd e1 1f aa be
       -0.006863945 -0.58622533 -0.117555216 -0.33227447

layer3.0.weight f4 [64, 32, 3, 3]
000000 ad f5 89 be 3e 95 a1 be f4 17 98 be e5 b1 60 be
       -0.26945248 -0.31559175 -0.29705775 -0.21942861
000010 b9 b4 41 bf 63 e7 b7 be e5 b6 eb bd 8f 4c df be
       -0.75666386 -0.35918722 -0.11509494 -0.43613097
000020 5d f7 e2 be 95 1d ab bd 98 52 e5 bd 32 9c d2 bb
       -0.44329348 -0.08355252 -0.11197394 -0.0064273113
000030 61 66 3b bd cc 6f 4b bd 88 89 5b bd 87 18 de 3d
       -0.045751933 -0.049667165 -0.053597957 0.10844522
000040 c6 3e c7 bd bd f0 8d bd ab c1 03 bd 0c 53 ab bd
       -0.0972877 -0.06930683 -0.032167118 -0.08365449
000050 6b 2f 80 bd e9 7a db bb d6 45 91 bd d7 aa 59 bd
       -0.06259044 -0.0066980016 -0.07093398 -0.05314144
000060 e4 45 c4 bd 90 9f 2e bc 33 d8 b1 bc eb a2 a2 bb
       -0.09583643 -0.01065816 -0.021709537 -0.004963269
000070 53 ba be bd d0 bb a4 bd e2 4b 2d 3d f5 d7 32 3d
       -0.09312882 -0.08043635 0.042308696 0.043662984
000080 4c a5 73 3d 9d 08 21 bd 64 af 8a 3d f0 c9 4e bd
       0.05948381 -0.039314855 0.06771734 -0.05048555
000090 09 23 e8 bd 55 55 97 bd 0d d1 99 bd ef c0 a0 bd
       -0.113348074 -0.07389323 -0.075105764 -0.07849299
0000a0 b7 57 d6 bd f1 cd 40 bd 08 5a 77 bd c4 88 d6 bd
       -0.10465949 -0.0470714 -0.060388595 -0.10475305
0000b0 df ff a5 3d 4c d9 d9 bb 95 94 0c bd 76 03 be bd
       0.08105444 -0.0066482183 -0.034321386 -0.09278004
0000c0 eb 56 9f bc 8d 79 ea bd 02 65 25 bb d8 fb a0 bd
       -0.019450625 -0.11448965 -0.0025237207 -0.078605354
0000d0 b7 d8 db bd 7c 7b 8c bd 30 b1 ae 3d ea 8a 07 bd
       -0.107346945 -0.0685949 0.085298896 -0.033091463
0000e0 62 48 81 bd 92 96 ba bd ea dc d7 bd c3 34 df bd
       -0.06312634 -0.0911075 -0.10540183 -0.108987354
0000f0 7e 88 cd 3c ea 99 f3 bd 39 bd 2f 3c 32 8e fc ba
       0.025089499 -0.11894591 0.010726267 -0.0019268452
000100 84 59 28 bc ed 83 a0 bd ec c5 1b bc e6 e6 66 bc
       -0.010275248 -0.07837663 -0.0095076375 -0.014093136
000110 27 a9 47 bd 3b 87 c3 bd bc e7 74 bc 8a 25 14 bd
       -0.0487453 -0.095472775 -0.014947828 -0.036168613
000120 57 95 42 be 3e 5f df bd b5 75 56 bd ff dd d4 bd
       -0.19002281 -0.10906838 -0.052358348 -0.10393905
000130 9d 70 35 bc 87 05 b6 bd 2c c5 e7 bd ed 48 2d be
       -0.011074212 -0.08887773 -0.113169044 -0.1692235
000140 87 16 f0 bd 1a 41 3e bd 41 db 9b bd f5 c6 a5 bc
       -0.11723047 -0.046448804 -0.07610179 -0.020236472
000150 e4 8a 33 bc a3 eb be bd b3 d2 55 bd 5a a3 84 bc
       -0.010958407 -0.09322288 -0.05220289 -0.016191173
000160 7a 3d da bd 59 f4 e7 bd da 8d 9c 3d 9f 8b b1 bd
       -0.10656257 -0.113259025 0.076442435 -0.08669209
000170 6d 93 cd bd 9c d5 09 3d ec b3 73 bb cf f7 72 bd
       -0.10037885 0.03365098 -0.00371861 -0.05931836
000180 46 32 1e 3c ad f5 e0 3d cb 2e 46 bd 98 89 e7 bd
       0.009655541 0.10984359 -0.04838447 -0.11305541
000190 41 91 be be 98 6b ba be 52 71 1a bf 47 11 99 be
       -0.37220195 -0.36410213 -0.60329163 -0.29895994
0001a0 a9 0e 74 be 36 97 20 be 68 d9 a1 be ee 36 93 be
       -0.23833717 -0.15682682 -0.3161118 -0.28752846
0001b0 f9 d8 9b be 9d c4 c1 bd e1 2d 0c bd 5a e8 76 be
       -0.30438974 -0.09461329 -0.03422344 -0.24112073
0001c0 ef 08 c9 bc 55 53 ac be 86 bf af bd 25 1b b3 bd
       -0.024540393 -0.33657327 -0.08581452 -0.08745412
0001d0 80 5b 87 be 5b d5 c9 bd 21 01 da bd af 19 ae bb
       -0.26436996 -0.098551475 -0.106447466 -0.0053131203
0001e0 75 5e 9b bd db f0 43 bd ae 0e d7 bd 11 ee d9 bb
       -0.075863756 -0.04783712 -0.10500847 -0.006650694
0001f0 ca 4e 8f bd a7 4c 59 bd fb 79 a3 be fa 91 7a bd
       -0.0699745 -0.053051617 -0.31929 -0.06117437
000200 4f c4 a1 bd 70 86 12 be df 8c 40 bd 8b 1a 5a bd
       -0.07898771 -0.14309096 -0.047009345 -0.05324797
000210 b8 7f 9f be 7e 27 26 3d 98 82 56 3c bc 63 b0 3d
       -0.3115213 0.040565006 0.013092659 0.08612773
000220 0f dd 44 bd 7f ee 8a bd e3 33 e5 bd 83 fe d3 bd
       -0.04806238 -0.06783771 -0.11191537 -0.10351279
000230 66 36 22 bd ac cd df bd 1e e8 37 bd 34 43 e9 bd
       -0.03960266 -0.10927901 -0.0448991 -0.11389771
000240 24 c2 e0 bd 51 92 fc bd 78 9b b1 bd 46 65 a4 be
       -0.109745294 -0.12332595 -0.086722314 -0.32108516
000250 14 fd df bd 0c 6a a8 bd 98 1e 35 be a1 b2 0c bf
       -0.10936943 -0.08223352 -0.17687452 -0.54960066
000260 e3 6c 0f be 3b d4 08 bd af 2c 4f bd 43 0f ed bd
       -0.1400638 -0.033405524 -0.050579723 -0.115751766
000270 c8 2e 8e bd cc 35 85 bd d6 b3 72 bd 1d 39 82 bd
       -0.069425166 -0.065044016 -0.059253536 -0.0635855
000280 be af 90 bd c1 a9 e3 bd e1 06 85 bd 60 45 2e bd
       -0.0706477 -0.11116362 -0.06495453 -0.04254663
000290 21 73 8c bd ee 76 85 bc 6c b5 a2 bd c6 b6 7e bd
       -0.068578966 -0.016292062 -0.0794476 -0.062186025
0002a0 93 e3 04 bd d2 f8 e3 3d 52 e6 80 bd 11 d7 c8 3c
       -0.032443594 0.11131443 -0.0629393 0.024516614
0002b0 8c a7 ef bc 8e c1 0e bc a4 58 4f bc 71 d1 ac bd
       -0.029254697 -0.008713139 -0.012655411 -0.08438385
0002c0 88 f0 45 bd 08 fb b8 bb 4e dd 98 bc 73 3e db bd
       -0.04832509 -0.0056451596 -0.018660214 -0.107052706
0002d0 6c 80 f1 bd c3 9e 4c bd 39 f7 22 bd 46 b2 a5 bd
       -0.11792073 -0.049956094 -0.03978655 -0.080906436
0002e0 69 95 c8 bd b1 ec ea bd b5 09 a0 3c 2a a6 40 bd
       -0.09794123 -0.114709266 0.019535879 -0.047033466
0002f0 c7 c2 74 bc b4 ec b9 bc 82 78 56 bd 73 11 83 bd
       -0.014939017 -0.022695877 -0.05236102 -0.063998125
000300 53 56 be bc 9e a7 d4 bd 43 11 ae bd d7 aa 6b bc
       -0.023234522 -0.10383533 -0.08499386 -0.014383993
000310 6a 0b df bd c7 8c a8 bd 12 35 69 3d 00 37 aa 3c
       -0.10890849 -0.08229976 0.056935377 0.02077818
000320 ff e8 23 3d 74 2d c9 3d 94 a6 aa bb d9 01 7e 3d
       0.040017124 0.098231226 -0.005207846 0.06201348
000330 f2 bf 78 3d 52 d8 d1 bd 64 1e c8 bc 84 e9 c9 3e
       0.06072993 -0.10246338 -0.024428554 0.3943597
000340 0e 49 19 be 19 4a d1 bd 88 df 64 be 7d a7 fb be
       -0.14969274 -0.10219211 -0.22350895 -0.4915122
000350 30 03 f0 be 97 a9 d2 be 99 76 b5 be a5 5b a4 be
       -0.46877432 -0.41145012 -0.35442045 -0.3210117
000360 8f 58 9f bd 8f 7f c1 bd 91 c2 99 bb ec 80 c9 bd
       -0.07780563 -0.09448158 -0.0046923836 -0.09839043
000370 53 0d 98 bd f1 be cc bd 9b 79 51 bd 17 c3 93 bc
       -0.074244164 -0.09997357 -0.051141363 -0.018037362
000380 11 3e e7 3d 04 8b c2 bd cb 3c 86 bd f8 6d e4 bd
       0.11291135 -0.094991714 -0.06554564 -0.111537874
000390 47 f9 ef bc 3d 36 b0 bd 4f 29 93 bd 4c 64 9e bd
       -0.02929367 -0.08604095 -0.07185613 -0.07733974
0003a0 1f 7b a9 bc 69 d4 23 bc be 1a 41 3d 25 4d 0c bd
       -0.020688592 -0.009999373 0.047144644 -0.03425326
0003b0 7b 9b c6 3c 20 e2 04 3d 72 42 c6 3c f6 2e 4f 3d
       0.02424406 0.032442212 0.024201605 0.050581895
0003c0 f6 e8 35 3c be 53 09 3d 26 1c 90 bc 5f 36 c0 bd
       0.0111029055 0.03352713 -0.017591547 -0.093853705
0003d0 f7 d8 b2 bc 58 86 26 bd f2 d1 37 bc 3e 87 02 bc
       -0.021831973 -0.040655464 -0.011219488 -0.007966815
0003e0 c5 73 a5 bd 4e af d2 3c 5d f7 57 bb c6 2c 35 bc
       -0.08078722 0.025718357 -0.0032953836 -0.011058038
0003f0 bc 6b ea bc 50 9b b6 bd 53 ef 5d bd 75 b1 d1 bd
       -0.028615825 -0.08916342 -0.054183315 -0.10238925

layer3.0.bias f4 [64]
000000 0b bd aa be 64 b7 af be 2d 41 36 bf f5 f7 de be
       -0.33347353 -0.34319603 -0.711932 -0.4354855
000010 17 64 01 bf ee 9b 45 bf 3f 0d d3 be 52 39 75 be
       -0.5054335 -0.77191055 -0.41221043 -0.23947647
000020 d3 2f 80 bf 7a 95 f7 bd 16 f4 8b bd ea 95 dc be
       -1.0014595 -0.12089057 -0.06833665 -0.43083125
000030 ec 45 33 be 43 5b 44 bf 01 fb 6e bd a5 1a 1f bf
       -0.17507142 -0.76701754 -0.058344845 -0.6215003
000040 52 52 bc bd b4 b0 25 bf c7 89 82 bf 4c 3d 29 be
       -0.09195389 -0.6472275 -1.0198296 -0.16527289
000050 e6 02 87 bd fc 0d 55 bf 81 79 04 bf 5e b7 f0 be
       -0.0659235 -0.83224463 -0.517479 -0.47014898
000060 2d fa 4c be cf 16 3c be bc 14 f4 be ca 79 07 bf
       -0.2001731 -0.18368076 -0.4767207 -0.5292021
000070 4b 76 46 bf a8 ef 3e bf 23 ae 60 3d 20 00 32 bf
       -0.7752425 -0.74584436 0.05485357 -0.6953144
000080 76 c4 66 bf df dd 6f bf 47 1c b6 bd b5 88 8d be
       -0.90143526 -0.93697923 -0.08892112 -0.27643362
000090 54 95 00 bf f2 9f 5a bf c0 ae fa be 56 0a 4f bd
       -0.50227857 -0.8540031 -0.4896145 -0.050546966
0000a0 d2 c7 13 bf 2b d6 88 bd 64 f6 71 bf b8 c9 40 be
       -0.57726777 -0.06681474 -0.9451659 -0.1882695
0000b0 19 d7 60 be da 4e 2d be 15 19 1b be 78 e3 c0 be
       -0.21957053 -0.1692461 -0.15146287 -0.37673545
0000c0 81 ca 34 bf 2d 12 e2 be 32 fd 1f bf c1 aa f5 bd
       -0.70621496 -0.44154492 -0.6249572 -0.11995459
0000d0 79 65 ba be 1f b9 bd bd a6 84 42 bf df ff 09 be
       -0.36405542 -0.09263825 -0.75983655 -0.13476513
0000e0 8f b0 28 be ee 45 89 3e b0 fa ac be 46 48 c2 be
       -0.16473602 0.26811165 -0.3378501 -0.37945765
0000f0 b1 43 94 bc 14 76 8a 3e 03 95 41 be f3 d1 da bd
       -0.018098684 0.2704321 -0.189045 -0.10684576

classifier.1.weight f4 [10, 576]
000000 5e c1 ab bd 7d d5 c7 bc 83 9d f6 be 15 a5 4e bd
       -0.08386491 -0.024393791 -0.48167047 -0.050450403
000010 55 3d 4b 3d 53 2e ae bd c9 cf c9 bd e4 63 9d 3d
       0.049619038 -0.085049294 -0.09854085 0.07685068
000020 40 58 c7 bc 49 88 98 3d cd 45 1b 3d d3 42 8b be
       -0.024334073 0.07447869 0.037908364 -0.2719942
000030 42 ea 67 3d c4 0e 84 3d 6e 7e 82 3c 1b 6f 5e 3d
       0.05661989 0.06448129 0.015929427 0.054305177
000040 92 ad 5d 3c a8 f6 0a 3c 3e bd 04 bd 4f 59 10 bf
       0.013530152 0.008481659 -0.032407038 -0.56386274
000050 81 53 ed be b0 f5 0b 3f 20 b5 4c be a4 6e b7 3e
       -0.4635277 0.54671764 -0.19990969 0.358266
000060 85 7e 41 3f 34 15 9a 3e 3d ee f1 be ed 9c 88 3e
       0.7558368 0.30094302 -0.47252074 0.26682225
000070 db 5a 96 3e 68 1d e8 be dd 6c 64 bf f1 1a c9 3e
       0.29366192 -0.45334935 -0.8922861 0.39278367
000080 59 c8 03 c0 c2 5b 34 bf e0 51 7e 3e 11 cf 7a 3e
       -2.0591033 -0.7045251 0.2483592 0.24493052
000090 f6 2f 75 be 10 9e 8f be c1 59 38 3d 80 f8 f1 bd
       -0.23944077 -0.2805028 0.04500747 -0.11814976
0000a0 63 07 af be 9f b7 54 be 86 22 b1 be 69 84 a5 be
       -0.34185323 -0.20773171 -0.34596652 -0.32327583
0000b0 4c c1 96 be 41 bc 30 3e e2 f9 46 be 8f e8 cb 3e
       -0.2944435 0.17259313 -0.1943126 0.39825866
0000c0 9c a0 80 be 5b 5d ff bd bf a3 70 bf 0b 93 96 bf
       -0.25122535 -0.12468978 -0.93999857 -1.1763624
0000d0 86 32 49 3e 26 a0 9c bf 96 72 50 be c8 07 b2 be
       0.1964818 -1.2236373 -0.20356211 -0.34771562
0000e0 ab bf 2f ba 38 cc 75 be 91 6c 97 be 23 cb 1f be
       -0.0006704281 -0.24003685 -0.29575017 -0.15604834
0000f0 b1 40 e7 bd 19 8b 1f be e1 04 61 bc 75 7d 99 bf
       -0.11291636 -0.15580405 -0.013734073 -1.1991411
000100 1c e3 52 bf e4 c2 57 3b 0c 0e 08 c0 ec 8f 1a 3e
       -0.8237779 0.003292256 -2.1258574 0.15093964
000110 9f 23 9f bf b9 ba 83 be aa 35 30 3f 98 92 01 3e
       -1.2432746 -0.25728396 0.68831885 0.12653577
000120 f7 f3 0d bf 10 c1 58 bf 4a 14 33 bf 05 fb ee 3e
       -0.55450386 -0.8466959 -0.69952834 0.46675888
000130 75 b2 1c bf 63 00 d8 be 65 ec 36 3c 23 82 a1 3e
       -0.61209804 -0.42187795 0.011164759 0.315446
000140 6d ec 06 bf 8b 83 9f be 7d e2 f4 3e 0d b0 52 bf
       -0.5270451 -0.31155047 0.47829047 -0.8229988
000150 b7 f8 60 bf 81 2e 22 bf 38 3f 37 3f f8 1b dc bc
       -0.8787951 -0.6335221 0.7158084 -0.026868805
000160 a0 e1 5a 3f c0 3d 1b bd 30 c2 a5 bb ea 70 81 3c
       0.85500526 -0.037900686 -0.0050585493 0.015800912
000170 ad dd 84 3d a9 09 82 3d c0 42 4d 3d 25 0d 2e 3d
       0.06487594 0.06349499 0.050112486 0.042493004
000180 e1 e1 86 3c f7 af b7 3c de 5b 9c 3d f5 d3 1b bd
       0.01646513 0.022422774 0.0763471 -0.038043935
000190 06 56 0e 3e 5a 35 ae 3e 63 4b 93 be 61 71 ab 3e
       0.13900003 0.3402508 -0.28768453 0.3348494
0001a0 8b 9d da bf 83 23 a4 bf 93 1c 56 3f 27 ce 5a 3e
       -1.7079328 -1.2823337 0.8363735 0.21367703
0001b0 41 07 b3 3b f1 03 72 bc ce 23 59 3e 99 58 41 bc
       0.005463511 -0.0147714475 0.21205065 -0.0118009085
0001c0 ae 90 8b 3d 5e cd 10 bc 5a e5 3a 3d ad 8f 03 3d
       0.06814705 -0.008838026 0.045628883 0.03211944
0001d0 5b 68 87 bd d9 14 6e be d5 5c 32 bd e3 81 4a bd
       -0.06611701 -0.2325014 -0.043545563 -0.049440276
0001e0 a9 cf 85 3e 5e 8f 8d 3e 43 07 57 bf f6 9a 52 bf
       0.26134995 0.27648443 -0.83995456 -0.822677
0001f0 58 a0 1b 3f 66 b5 09 bf f7 87 86 be 62 4f d1 bf
       0.6079154 -0.5379242 -0.26275608 -1.6352351
000200 64 4d 9a be f7 32 2b 3e 06 9c 6a bf 3b 9d 4b bf
       -0.3013717 0.1671866 -0.9164432 -0.7953679
000210 8b e9 26 3f bc 1b f2 3e ad b9 10 3e 83 12 9a be
       0.6520011 0.47286785 0.1413333 -0.30092248
000220 b2 80 a3 be f9 e5 5f be 7c 11 0b bf 91 4d db be
       -0.31934124 -0.21865071 -0.54323554 -0.42832616
000230 b9 f0 17 bf 3a 97 85 be 7a fc 7c 3e 7c f8 7d be
       -0.5935169 -0.2609194 0.24705687 -0.2480182
000240 0b 78 25 bd 1c 14 2a bd 63 bc 96 bd 21 f1 5f bd
       -0.040397685 -0.041523084 -0.07360151 -0.054673318
000250 7b 32 c2 bd 5f 01 46 ba 46 e2 8a bd 6e ef 8a bd
       -0.09482285 -0.0007553305 -0.067814395 -0.06783949
000260 c8 52 ac bd 28 11 a3 be 65 9f c8 bf 78 eb e3 bf
       -0.08414227 -0.31849027 -1.5673643 -1.7806234
000270 4a 74 1c be 63 c5 83 bf 43 7b f0 3d da c8 64 3f
       -0.15278736 -1.0294613 0.1174226 0.89368975
000280 f2 f4 81 3e bd 5a 0a 3f 5e 48 86 bf 20 5e ee be
       0.2538219 0.54044706 -1.0490835 -0.46556187
000290 b8 dd 30 bf 35 cd 1f bf 44 1f 4f be 85 0f 3d bf
       -0.69088316 -0.62422496 -0.2022677 -0.73851806
0002a0 6b 56 a1 be 57 44 90 be 30 f6 01 3f 24 f4 a4 bc
       -0.31511244 -0.2817714 0.5076628 -0.020135947
0002b0 ca 85 06 bc 0a 57 9a 3d b3 c6 6c 3d 85 a1 af bc
       -0.008210609 0.07536133 0.05780668 -0.021439323
0002c0 41 ea 6e 3d 80 3a dd 3c 78 c1 7c bc ae a1 a1 3d
       0.05832887 0.027005434 -0.015426986 0.07892166
0002d0 73 1f 38 be 73 08 aa 3f e7 e3 54 bf a7 d6 d1 3e
       -0.17980747 1.3283828 -0.8316025 0.4098408
0002e0 70 5c 46 be df 8e e2 be b0 e2 ff 3e 12 11 a9 bf
       -0.193712 -0.44249627 0.49977636 -1.3208334
0002f0 6e 33 0d c0 d5 19 9f bf 1b 4f 0c be df 30 91 3e
       -2.206264 -1.2429758 -0.13702051 0.28357598
000300 e9 e8 e5 3e 6d 22 40 3d f1 90 4c bf 8c ab 21 bf
       0.4490426 0.04690783 -0.79908663 -0.63152385
000310 a9 69 ef 3d 26 ec b9 3b 80 71 79 3e a1 ca ef 3e
       0.11690075 0.005673903 0.24359703 0.4683428
000320 82 27 6e 3e 43 7a a2 bf 59 7b 36 bf f0 7b 53 3f
       0.23257259 -1.2693561 -0.71281964 0.8261099
000330 10 b3 fc bd 7c f3 ae be 51 6d 19 bf 75 99 5e be
       -0.12338841 -0.3417014 -0.5993243 -0.21738227
000340 a1 60 b9 be 2d 69 3f 3e b1 9a c5 3d 52 7d 60 be
       -0.36206535 0.18692465 0.09648646 -0.21922806
000350 48 06 49 3e 32 be 91 3e 04 d6 c1 3e 50 f2 d8 bd
       0.19631302 0.2846542 0.37858593 -0.105930924
000360 34 59 b3 bc f6 9a 87 bd b4 3d f7 bd f3 21 f8 bc
       -0.021893121 -0.06621353 -0.12072316 -0.030289626
000370 1e 31 bb bd 8d e4 92 bd 12 6c b7 bc 8d ae cb bd
       -0.09140228 -0.07172499 -0.0223904 -0.09945402
000380 35 f7 97 3d 40 d7 ac 3c 6a c9 95 3b b9 1f 32 bd
       0.07420198 0.021098733 0.0045711296 -0.043487284
000390 07 97 2b bd 59 fd aa bc fc 19 28 bd 3d 56 4d 3d
       -0.041892078 -0.020872759 -0.041040406 0.05013107
0003a0 41 98 75 bd d7 71 8b bd ca ba 8f bb 85 78 1e bf
       -0.059959654 -0.068088226 -0.0043862807 -0.6190265
0003b0 8b 2e 30 be ba be 06 be 07 d4 81 3e 33 95 0e 3f
       -0.17205255 -0.13158694 0.25357077 0.5569641
0003c0 4f 0b ce 3d cb 1d 27 bf 89 72 da be c4 44 c6 3c
       0.10060751 -0.65279835 -0.42665508 0.024202712
0003d0 d4 f0 71 3e 4a e5 64 bd c4 c4 e8 3c 76 fa 53 bd
       0.23627025 -0.05588273 0.028414138 -0.05175253
0003e0 2e f0 a7 bd 3a 3a 69 bc e6 30 be bd 96 ff a5 3a
       -0.082001075 -0.014235074 -0.092866704 0.0012664672
0003f0 de d6 75 bf a6 0b 1b be 5a b4 37 be d1 c6 81 bf
       -0.96030986 -0.15141162 -0.17939892 -1.0138799

classifier.1.bias f4 [10]
000000 3f 4b b5 be f6 62 70 3f 76 69 e6 3d e4 86 1b be
       -0.3540897 0.93901 0.11250584 -0.15188175
000010 6b aa 0a 3f d0 f8 0b be b1 7f 0d bf 33 0b 82 3e
       0.5416629 -0.13669133 -0.55272967 0.2539917
000020 c6 9b 3c be 98 42 fd be
       -0.18418798 -0.4946487
